checkpoint/REINFORCE/reinforce-agent-[75000]-[0.0001]-[0.95]-stanford.pt (torch, 147679 bytes, 4 tensors)

weight f4 [120, 240]
00000000: 020c 61bc d094 533c 05ae ffbc 4a86 923c
00000010: d56e f5bc 60e9 3e3d b505 553d 7819 98ba
00000020: 9e25 91bd b771 32bd 37cf 95bd ca00 0dbd
00000030: d505 02bc 8c9a 2f3d 0a35 1fbd 6cd6 613d
00000040: 3ef9 5abd 40a5 cb3a e490 51bc 0381 c73c
00000050: d70e 29bd 9e61 5abd 2d63 cebc eecf 033d
00000060: b1d0 0bbd 0f83 8fbd 38dd 67bc 6933 093d
00000070: 20b5 babc ba7a d03c dc28 a0bd d489 d5bc
00000080: 33b2 cb3c 09e6 273d 7436 41bd 4a43 16bc
00000090: aef2 123d 7b6d 01bd 5390 9c3c a822 50bd
000000a0: 2718 9ebd 9638 0f3d 4af8 d53c a3a2 e73c
000000b0: 7d18 30bd 85a5 2d3d a4e0 6abd fdb9 e73c
000000c0: 6182 35bd 3035 5b3c 1ea7 dabc ea7f 44bd
000000d0: a98d a03c 791c 0abd 2e3b 4cbc b2bf 1b3d
000000e0: 9a21 523d e80d 8fbc 96f3 02bd 97f8 8abd
000000f0: e2a0 61bd 89b2 adbc 0265 143d 62db 00bd
00000100: 2bfa 56bd e943 3b3d f10f 43bc bb3e 03bd
00000110: 59d7 65bd 5067 803c c1fe d8bc 45df 4d3d
00000120: f207 8cbd a7ff 5e3d a8cf 1abd adec d43b
00000130: 9bf7 f9bc 914e e73c 4380 71bd 7ee7 03bc
00000140: 6e96 a7bb 1de3 d83c a19c 2fbb 5214 cd3c
00000150: c892 a3bd 4c15 5ebd 0411 db3c 709f 283c
00000160: 77aa 78bc 10ce 4cbd 2a21 493d ba95 34bd
00000170: 86b2 8cbc 1182 4ebd 3c5d 43bb 93c4 863d
00000180: 44a0 0e3d 2056 b63c 2644 533d c176 c5bb
00000190: 2582 233d 05dd 163d 5271 0f3d 0706 3e3d
000001a0: 0abb 85bd e933 19bd 027d e2bc 5afa 8c3d
000001b0: bbe6 983b 773a 7dbc 525f 023d 4b73 a0bc
000001c0: 172a 74bc cb2b 2f3d 5b97 3bbd 5bd4 36bd
000001d0: 68b2 07bd 7710 d1ba 0971 91bd 5495 393c
000001e0: 04e7 b23c d04a 7abd 7271 2dbc f0c9 883d
000001f0: 5e89 5ebc 89cf d83c c4cd 293d 69d3 14bd
00000200: 288f 4cbc ea50 363d 1a66 c43b cb0a 0b3d
00000210: ae8e c6bc 7050 95bc 60d0 c73b c805 323d
00000220: 72c4 5ebd 5119 583d 3ba6 3e3c 49a9 b5bc
00000230: 4150 0ebc ffdb d4bc 11a5 76bc 6f5d 13bc
00000240: 90d9 f5bb 77a6 c1bb b8d8 14bc cb36 4bbc
00000250: acad 923c a88b 30bd 7016 7d3c 4e09 f63c
00000260: 4d95 433b 2f30 0a3c de25 343c c198 003d
00000270: cadb 78bb 3c47 20bd c566 82bb 0729 51bd
00000280: 2666 19bd 6634 12bc 41ca 82bd dc79 003d
00000290: 6c1b 66bd eaa1 113d 5e5b debb 8288 403d
000002a0: 19bd 70bd 551d 5d3c 25f8 b23c e6d0 3a3d
000002b0: 111c 3cbc 2619 0b3d 8879 62bd 084e b5bb
000002c0: 8c3a 16bd 80f9 d4bc a87c 07bc 00c1 7f3c
000002d0: 6754 d83c 4819 593d 4593 3e3c 9608 843c
000002e0: aec0 233d 193a 94bc 067a 6a3d 972c b43c
000002f0: d692 23bc 39f1 e93c 363e 533c 2d34 413d
00000300: 7e2b f1bb 23ff 033d f2df 473c 40d9 563c
00000310: 9a52 77bd 4d46 323d 3585 61bd 4ef4 4bbd
00000320: 9c69 96bc 86de 54bb 61ad 44bc 9054 84bc
00000330: a7b1 4a3b b39e 113d 6462 883c 97ac 403d
00000340: 5670 b93c 7547 13bd 635d 813d 01a1 803d
00000350: 1a5a bc3b a7f7 803d c8e9 323d e1ea 35bc
00000360: 6542 bcbc 9884 0ebd 1134 ba3c 13c1 cebc
00000370: 8805 0fbd 3147 823c ca38 ee3c 035a a93c
00000380: 826b 883c 3242 f03b cbfc 473d 514b b73c
00000390: ec7d 4e3d b91a b73b 83c0 5bbd 1837 c03c
000003a0: 65c9 893c 21cd a0bc 2f56 e53c 399d 083c
000003b0: 7c53 4b3b f393 993c aa43 33bd 9fc3 bbbc
000003c0: 6e57 a4bd 9683 1fbe 34ee 32be 8853 e2bd
000003d0: 7885 b5bd e1a0 3cbc a81d f3bd 54ff 20bd
000003e0: 01c1 59bd c53e fabb fcd3 8fbd 12cb a3bd
000003f0: 19ac 003e 552d bdbc 3c3e 763d ec8f f43c
-0.013735773 0.012913898 -0.031210909 0.0178863 -0.029960075 0.046609282 0.052007396 -0.001160427
-0.07087253 -0.04356548 -0.07314914 -0.03442458 -0.007935961 0.042871997 -0.03886894 0.05513613
-0.053460352 0.0015536919 -0.012790892 0.02435351 -0.041273918 -0.05331575 -0.025193775 0.03218072
-0.03413457 -0.07007419 -0.014151864 0.033496294 -0.022791445 0.025449146 -0.07820293 -0.026066698
0.024865245 0.040990863 -0.04717107 -0.009171316 0.03587597 -0.03159855 0.019111788 -0.0508143
-0.077194504 0.034966074 0.02611937 0.028275793 -0.042992104 0.04239418 -0.05734314 0.028286928
-0.044313792 0.01337938 -0.026691016 -0.04797355 0.019598799 -0.03371856 -0.012465281 0.03802461
0.051301576 -0.017462686 -0.031970583 -0.06785696 -0.05508507 -0.021203296 0.03622914 -0.03145922
-0.052484673 0.04571906 -0.011905656 -0.032042246 -0.056113575 0.015674263 -0.026488664 0.050261755
-0.06837453 0.054443028 -0.037795693 0.0064979405 -0.030513575 0.028235706 -0.05896021 -0.0080507975
-0.005114368 0.026475484 -0.002679624 0.025034104 -0.07986981 -0.05421953 0.026741512 0.010291919
-0.015177361 -0.050001204 0.049103893 -0.044088103 -0.01717497 -0.05041701 -0.002981021 0.06580462
0.03482081 0.022257864 0.051578663 -0.0060261195 0.039919037 0.036831874 0.03502018 0.046392467
-0.065298155 -0.03740302 -0.027647499 0.06883688 0.004666177 -0.015455834 0.031829186 -0.019586226
-0.014902613 0.042766374 -0.04579864 -0.04463611 -0.033129126 -0.0015950341 -0.07101638 0.0113271065
0.021838672 -0.061106503 -0.0105861295 0.066791415 -0.013582556 0.026466148 0.041456 -0.03633443
-0.012485303 0.04451076 0.005993617 0.03394584 -0.024237957 -0.018226832 0.0060978383 0.043462545
-0.054386564 0.05275852 0.011636312 -0.022175448 -0.008686126 -0.025983809 -0.015054003 -0.008994444
-0.007502742 -0.0059097367 -0.009084873 -0.0124032 0.017905079 -0.043101937 0.015447244 0.030033734
0.002984363 0.008434339 0.010995356 0.031395677 -0.0037972801 -0.039130434 -0.0039795362 -0.051064517
-0.037450932 -0.008923626 -0.06386233 0.031366214 -0.056178495 0.035554804 -0.006785794 0.047005184
-0.058774088 0.013495763 0.02184684 0.045609377 -0.011481301 0.03395953 -0.055291682 -0.0055329837
-0.03667693 -0.025997877 -0.008269466 0.01560998 0.026407434 0.053002626 0.0116317915 0.016117375
0.039978676 -0.01809411 0.057245277 0.021993918 -0.009983739 0.028557407 0.01289325 0.0471689
-0.007359921 0.03222574 0.012199389 0.01311332 -0.06038151 0.043524075 -0.055058677 -0.049793534
-0.018360905 -0.0032481267 -0.012004227 -0.016153604 0.0030928643 0.035551738 0.016648479 0.047039595
0.022636574 -0.03595682 0.0631664 0.06280709 0.0057480456 0.06297236 0.043679982 -0.011103363
-0.022980878 -0.03479442 0.022729905 -0.02523855 -0.034917384 0.015903087 0.029079814 0.020672804
0.016652826 0.00733211 0.048825067 0.02237478 0.050413057 0.0055879024 -0.05365039 0.02346377
0.016819665 -0.019629063 0.027995197 0.008338266 0.0031025102 0.018747305 -0.0437657 -0.022920428
-0.080244884 -0.1557754 -0.1747368 -0.110510886 -0.08863348 -0.011512966 -0.11870891 -0.039306
-0.05316258 -0.0076368772 -0.07022855 -0.07997717 0.1256565 -0.023092905 0.060117945 0.029853784

bias f4 [120]
00000000: 7af4 67bd 809e 823d 44a9 1e3e 25b0 cb3d
00000010: 0dc6 ae3d 1088 503c 5a67 0abd ad66 9f3d
00000020: a9fa 80bd 6c0d 46bd 7f48 74bc a640 3bbd
00000030: 3756 e73d 93a1 493e 9509 16bd c117 033e
00000040: d132 85bd 6cf3 37bd acab 92bd 4bd8 153e
00000050: 67d7 acbc ba2e 1c3e 14f9 d9bc 1e72 143d
00000060: 0ba3 853d d161 043d c0f0 7fbd 94e5 1a3d
00000070: 323d 1bbd cd69 a03d 9fb3 1f3e 8b04 493c
00000080: 62ce 943d 4b95 553e fe02 733c 47db 0d3d
00000090: f4aa 323d 2dff 053e a79d 87bd 5d56 80bd
000000a0: 4bc6 85bd 4480 2c3d fe37 823d 6597 e5bc
000000b0: 533d 9a3c 3ddc 9bbc 23a3 64bd 6477 db3d
000000c0: 0306 11bd 4010 f03d cba7 41bd df5b bdbd
000000d0: dc6f 013d c7ac f63d 8277 75bd bdf3 b43c
000000e0: 8bd0 013e 3e7a 943c e094 033d 161f e1bc
000000f0: 2d70 733d ad3b 2a3d eaac 853d daf8 8dbd
00000100: cba2 05bd 9470 0e3d d3b9 82bd e702 7c3d
00000110: 1412 a0bd b393 abbc 0de3 29bd 3d45 d03b
00000120: 2a61 10bc e3b0 d5bc eaaa 3d3d e9cd 723d
00000130: 0db7 133c 9f43 5dbd 96ac 6c3d 0fd2 23bd
00000140: ff91 ac3c c5a3 b63d f47a f8ba 3ac3 c3bc
00000150: 8376 8c3c af76 cabd 25a4 283d 63aa 033e
00000160: e417 c03d 44e7 963c 23ae a83d ac5a e0bc
00000170: 92c6 153e 9695 96bb e33b 25bd a3ce 0abc
00000180: 8c46 9bbc 4e08 67bb 6113 ed3c 2c07 b43a
00000190: 144b 193e bed2 053d 28b7 0fbd b0f0 d93c
000001a0: bb15 bebc 21da 6abd 32ec 1e3d 251a 133e
000001b0: ee99 e03d bf41 bfbc 49fe b23d b01c c93d
000001c0: 861e 9e3d 486d 443d a619 ff3d f62b 49bd
000001d0: 88be 1f3d ea22 083e b56e a63d 5c89 2cbd
-0.056629635 0.06377888 0.15494257 0.09945706 0.08533869 0.012727752 -0.03378997 0.07783256
-0.0629781 -0.048352644 -0.014909863 -0.04571595 0.11295741 0.19690542 -0.036630232 0.1280203
-0.06503833 -0.04490988 -0.0716165 0.1463329 -0.021098806 0.152522 -0.026608028 0.036241643
0.065252386 0.032319847 -0.062485456 0.0378166 -0.037900157 0.0783268 0.15595864 0.01226915
0.07265927 0.20857732 0.014832256 0.034632947 0.043620065 0.13085623 -0.06621867 -0.062664725
-0.06531962 0.04211451 0.06358336 -0.028026292 0.01882807 -0.019025916 -0.05581964 0.10716131
-0.035406124 0.117218494 -0.04727916 -0.09246039 0.031600818 0.120446734 -0.059928425 0.02208888
0.12677209 0.018124696 0.0321244 -0.027480643 0.05943315 0.041560818 0.06527121 -0.0693223
-0.032625955 0.03477533 -0.063830994 0.061526205 -0.07815948 -0.020944452 -0.041476298 0.00635591
-0.008812228 -0.026085323 0.046305574 0.059278402 0.009015811 -0.054019567 0.05778178 -0.03999525
0.02106571 0.08917955 -0.0018957541 -0.023896802 0.017146355 -0.09885918 0.041172165 0.12857966
0.09379557 0.018420823 0.08236339 -0.027386986 0.1462653 -0.0045954688 -0.040340316 -0.008472118
-0.018954538 -0.0035252753 0.028939905 0.0013735048 0.14970046 0.032671683 -0.03508678 0.026604027
-0.023203721 -0.05733693 0.038799472 0.14365442 0.1096686 -0.02334678 0.08739907 0.09819925
0.07720666 0.04795578 0.12456064 -0.04911419 0.039000064 0.13294569 0.081265844 -0.042123184

weight f4 [61, 120]
00000000: c46c 113d 1888 84be 060a 043d fb9e 66be
00000010: 0665 653e 432e 8b3d bc69 a93d 8658 0eb9
00000020: f985 e63c 4257 6fbd 5e59 a33d 62e1 cd3d
00000030: 234d cd3c ac5a bf3d b887 88bf 2cdf 813e
00000040: bf62 87bd 3df7 b83c 916e 113d 3dfe b43e
00000050: 3e45 0fbb cdfc 2f3e 76cf 863d 7065 c5be
00000060: cb9a 293e c24f 13bf 0000 3a3a ffbc 423d
00000070: 453e b23d 3a3d 1ebe 64f0 613d 23de b8be
00000080: 2029 fdbe 7186 ec3c 5b42 f5be ddb0 6fbc
00000090: bea5 9ebc 474f a83e c332 abbc 5fb4 6e3b
000000a0: 64f0 91bd 8b52 433d 5c18 0d3f e5f7 ba3d
000000b0: 9ee1 91bd 7c72 c8bb 67d1 0a3b b6e5 553e
000000c0: 4eb4 f93b bb3f 473d 67ca c4bd 9670 ccbc
000000d0: 23d5 b4bc ef97 543e 5716 aabd 95cd fdbc
000000e0: ab3c 363d 5cab 19bd 1999 a53d 5a0c 303b
000000f0: 6372 b13e 9a65 83be 4af6 67be 8aa2 993d
00000100: b6a5 f0bc 0dbf a03c df40 973d 9ba5 353e
00000110: 4476 39bd da7c fdbf 7c1f 9c3d e83d 60bd
00000120: 2c1f 9a3d 64c7 21bd 9db8 b33d 443d 143e
00000130: c14c 283d 2e27 cd3c 9344 dd3d c312 ce38
00000140: 7f5b 903d b75c 993d 85d4 4bbd 48b1 51bd
00000150: 45e9 e2bc 63a4 14bf b585 a13e 7131 81be
00000160: ea33 3f3e 071b 763d ab64 a03e aef1 d63b
00000170: 0bea ad3e d91d c0bd d951 af3c 24c4 153d
00000180: e9a9 363d c16c 043d bc17 5ebd 976b 503d
00000190: 7fe1 e83e ae29 903e 9611 a93d 2dbc 5dbe
000001a0: 7aae 8dbc 23de 6dbd 1b57 bebb c8df 863e
000001b0: f59d 43be 70f6 7ebc 5553 373e a215 333e
000001c0: 4025 273e 3fa7 323d 2e18 8dbd e0d7 31be
000001d0: 3af1 8a3c a083 bcbe a1e7 843e ca82 0abd
000001e0: 8923 cebd e690 723d b446 953e a120 733d
000001f0: d676 a6bd 5cff 0cbd 5ec1 29bd 3ba5 cbbe
00000200: add5 b23d 9c47 a3bc 7621 633d 42ee 31bd
00000210: 7959 c8bc 74fd 7cbc daa9 12bf d4ba 703e
00000220: 6011 593c 30a0 bebc 1291 c0bc d4d9 863e
00000230: e657 15bd 4d9b f53d 8963 cbbc 40be 2dbf
00000240: 8ec2 103e 6d37 1dbe 58a9 553d 88df 9abf
00000250: 06ac 723d 1a28 dfbd 5620 9ebc 0ea7 bebe
00000260: 38d1 963e 6f2b 263d 6648 afbe 8360 133c
00000270: 9c79 2cbd 2e3c 36be 4779 8b3d 9b9a 753d
00000280: 4781 933d 0337 81bd 4054 993e df00 853c
00000290: a091 ebbc 8de3 333d 62f9 683d b31b 5e3e
000002a0: d5b2 993d 9248 01be 4278 1ebe 166e b03d
000002b0: 5f7b 9d3c 965f 09be d7b4 353d 6a7f 89bd
000002c0: 3de5 463d b4ca 67bd 8f10 813c 175c 8b3d
000002d0: 09e2 113e 8df9 ebbd b454 163e befa 413b
000002e0: 14a7 d6bd dad2 96bc 7fe7 143c 55e2 4abb
000002f0: 0553 a7bd 0936 c3bf 3b97 1d3d 1828 edbb
00000300: 7921 e03c 9837 aabd c7ea 353e 6982 6a3c
00000310: 7c37 913c faa3 7a3b 4d56 933e eca4 7d3d
00000320: 8cea 69bd d5f5 093f ab64 033d 4d35 afbd
00000330: 8930 223d eff2 07bf b8e2 23bb 2490 66be
00000340: c808 90bd ce6e bc3e af2b c03e e757 10bc
00000350: 3333 c4bd 9501 f03b 03b1 8a3d b71b 64bd
00000360: 564a 513d 7e4d ac3d 9ad6 cd3d 237a 9a3c
00000370: e71d 013b d4f5 153e 042c 413d aef2 173e
00000380: 30a2 3b3b 2d34 a2bd 007a 4b3c 8865 9e3d
00000390: 382c 21be 165f 6c3d 751d de3e 97d1 81be
000003a0: 1253 f4be 2bd2 a4bd 15da 4cbd e6d9 06bf
000003b0: c8e0 80bd 3c5f 7bbe a0cc b5bd 9e50 f53c
000003c0: 485c 823d febf a43d 40ea 383c aea6 e1bc
000003d0: f943 ffbe ce57 f4bb 2ac5 00bd 757b 183e
000003e0: cccd 8ebc c37b d03d 4c3f b1bd ac28 5c3d
000003f0: f366 b9be 0883 f2bc 6371 c6bc 0079 cebc
0.035504118 -0.2588508 0.03223612 -0.22521584 0.22401819 0.06795933 0.0827212 -0.00013575153
0.028140055 -0.058432825 0.0797603 0.10052754 0.025061196 0.09343466 -1.0666418 0.2536558
-0.06610631 0.02257883 0.035505835 0.35350218 -0.002186134 0.1718628 0.06582539 -0.38553953
0.16562955 -0.57543576 0.0007095337 0.047543522 0.08703283 -0.15453044 0.055160895 -0.36106977
-0.49445438 0.0288727 -0.47902188 -0.01462957 -0.019366141 0.32872984 -0.020898229 0.0036423428
-0.07125929 0.04768614 0.55115294 0.091293134 -0.07123111 -0.006117163 0.0021181942 0.20888409
0.007620371 0.048644762 -0.09608918 -0.024956029 -0.022074288 0.20761083 -0.08305042 -0.030981818
0.04449145 -0.037516937 0.08085842 0.002686283 0.34657583 -0.25663453 -0.22652546 0.07501705
-0.029375892 0.01962235 0.0738542 0.17738955 -0.045278803 -1.9803727 0.07623193 -0.05474654
0.07525477 -0.039496794 0.087754466 0.14476496 0.041088823 0.025043096 0.10804095 9.82634e-05
0.070487015 0.07488387 -0.04976322 -0.05119446 -0.027699122 -0.58063334 0.31547323 -0.25233033
0.18672147 0.06008437 0.31326804 0.006559572 0.33967623 -0.09380693 0.021401333 0.036564007
0.044595633 0.03233028 -0.054221854 0.050883856 0.4548454 0.281568 0.082553074 -0.21653815
-0.017295111 -0.058073174 -0.0058087236 0.26342607 -0.19103225 -0.015561685 0.17902882 0.17488721
0.16322803 0.04361653 -0.068893775 -0.17367506 0.016960729 -0.36819172 0.2595797 -0.033816136
-0.100653715 0.059220217 0.29155505 0.05935729 -0.08128135 -0.034423217 -0.041444175 -0.39774498
0.08732162 -0.019931607 0.055451833 -0.04344011 -0.024456726 -0.015441287 -0.5729042 0.2350877
0.013248771 -0.023269743 -0.023506675 0.26338065 -0.03646078 0.11992512 -0.024827735 -0.67868423
0.14136717 -0.15353175 0.052163452 -1.2099466 0.059246086 -0.10896321 -0.019302528 -0.37236828
0.29456496 0.040568765 -0.34234923 0.008995178 -0.042108163 -0.17796394 0.06810241 0.059961896
0.07202392 -0.06309321 0.2994709 0.016235767 -0.028755963 0.04391818 0.056878455 0.21690254
0.07504813 -0.1262534 -0.15475562 0.08614747 0.019223867 -0.1341537 0.044361915 -0.067137554
0.048558462 -0.056589797 0.015754966 0.06804674 0.14246382 -0.115222074 0.14680749 0.0029598917
-0.104810864 -0.018411089 0.009088396 -0.0030957658 -0.081701316 -1.5250865 0.038474303 -0.0072374456
0.027359711 -0.08311385 0.17765342 0.014313319 0.017726652 0.003824471 0.2877678 0.06192486
-0.057108447 0.53890735 0.032078426 -0.08555088 0.039597068 -0.5310506 -0.002500696 -0.22515923
-0.07032925 0.36803287 0.37533328 -0.00881002 -0.09580078 0.0073244073 0.067720436 -0.055690493
0.051096283 0.08413218 0.100506976 0.018857067 0.001970166 0.14644557 0.047161117 0.14838669
0.0028630607 -0.07920108 0.012419224 0.07734209 -0.15739524 0.05770787 0.4338185 -0.25355217
-0.47719628 -0.08047899 -0.050012667 -0.52676237 -0.062928736 -0.24548048 -0.0887692 0.029945668
0.063652575 0.08044432 0.011286318 -0.0275453 -0.49856547 -0.007456756 -0.03143803 0.14890845
-0.017432116 0.10179856 -0.08654651 0.053749725 -0.36211357 -0.029603496 -0.024223989 -0.025204182

bias f4 [61]
00000000: c7c2 9f3c 63d7 18be 3e63 50be fdaf 2abe
00000010: 47e6 32be 2288 bebd 3321 2e3d b6a6 bbbc
00000020: cade 15be 3864 b4bc 8ab8 e6bd 5b24 f8bd
00000030: 150c 103e f66d 5dbf fe09 72bf 39ab 2ebc
00000040: 73be ffbd b4ce 32be d5c4 59bd 44bd b5bd
00000050: 07a3 1fbe 53de 61be 99c3 4ebd 2708 a2bd
00000060: d7e3 efbd 7606 6c3c d297 3cbe 9b37 8c3d
00000070: 02b4 6cbf 2e4b 6ebf 4807 2b3c 7278 293d
00000080: 39be 90bd 0a56 98bd 702f 22be d573 59be
00000090: 9eb4 17be e1a9 0dbe 5693 7abe fafa f8bd
000000a0: 6a15 1cbe ead8 debc 1111 5b3d 8ba2 52bf
000000b0: e005 47be 0411 043d 772b b0bb 32dc a2bc
000000c0: 3137 27be 7f37 bdbd 879d 79bb dba8 673c
000000d0: eeac 07be c0b6 82b9 f7cc c5bd 14c8 973d
000000e0: d2cb 0abd 6c37 bc3d 56f7 d2bc ed0f 66bf
000000f0: 1a83 79bd
0.019502057 -0.14925914 -0.20350358 -0.16668697 -0.17470656 -0.09303309 0.04251213 -0.022906642
-0.14635769 -0.022020444 -0.11265667 -0.12116309 0.14067109 -0.8649591 -0.94546497 -0.01066094
-0.12487497 -0.17461663 -0.05316623 -0.0887399 -0.15589534 -0.22057466 -0.050479505 -0.07911711
-0.11713379 0.014405837 -0.1841729 0.068465434 -0.9246217 -0.93083465 0.010438748 0.04137463
-0.07067532 -0.07438286 -0.15838408 -0.21235593 -0.14814994 -0.13834335 -0.24470267 -0.12157245
-0.15242544 -0.027203042 0.053483073 -0.8227927 -0.19435835 0.03224279 -0.005376275 -0.019880388
-0.16329648 -0.09239101 -0.0038088278 0.014139379 -0.13249561 -0.00024931692 -0.096582346 0.07411209
-0.033885784 0.091902584 -0.025752705 -0.8986805 -0.060916044
