checkpoint/REINFORCE/reinforce-agent-[40000]-[0.05]-[0.99].pt (torch, 147679 bytes, 4 tensors)

weight f4 [120, 240]
-0.34055385 -0.23956352 -0.24995485 -0.3065235 -0.22780189 -0.34486273 -0.2616554 -0.22575983
-0.31676295 -0.2283951 -0.025279135 -0.24113452 -0.25477767 -0.40961456 -0.24939975 -0.22727537
0.02938532 -0.33459592 -0.24942726 -0.29925513 -0.26241216 -0.32599175 -0.24712723 -0.34940612
0.01792287 -0.27177224 0.2968345 -0.31091526 -0.3659733 -0.31556448 0.3020217 -0.2294456
0.051937953 -0.22485593 -0.34185663 -0.25973064 -0.24719484 -0.25481766 -0.22481814 -0.30883762
-0.34236172 -0.30832365 -0.24350119 -0.39196092 -0.27631408 -0.32414952 -0.25346893 -0.28846455
-0.28655994 -0.33301657 -0.2526459 -0.22885671 -0.31965506 -0.3220531 -0.24580747 0.040017314
-0.22437608 -0.23961133 -0.3484807 -0.28260225 -0.055882797 0.017892614 -0.003022682 -0.048221327
-0.009815741 -0.04413894 -0.009058304 0.03139326 -0.039547257 -0.0012767911 -0.22870338 -0.058404077
-0.0034462959 0.2702295 -0.0066501014 0.029587552 -0.32814232 0.008637555 -0.0089735985 0.05905772
0.028877825 0.047508374 0.010495342 0.063413195 -0.2968898 0.02155371 -0.38664728 0.0019682422
0.26094913 -0.0225764 -0.36197647 -0.057117693 -0.23418447 -0.016958624 0.0038602576 -0.027953397
-0.13827226 -0.011203613 -0.042647243 0.008996971 0.042138197 -0.05030697 0.015369363 0.24614345
-0.017072301 -0.061470505 0.01917015 0.006497197 -0.024125602 -0.025957271 0.05210974 -0.011533748
0.038892187 0.05313386 -0.04157912 -0.26474553 0.046699516 0.011839174 0.3276653 -0.06309979
0.0560268 -0.013431955 0.04123792 0.009036571 0.04910052 0.048994936 -0.035967648 0.059288114
0.0042771176 0.021357894 -0.03313087 -0.009220708 0.021921448 -0.037431415 0.026674792 0.034836277
0.061503075 0.004927933 0.02645123 0.060522147 0.03128413 -0.023951028 0.02967088 0.04044924
0.014574498 0.06224107 0.053792417 -0.05597744 -0.007028401 0.043734983 0.0237623 0.011838399
-0.063848265 0.0445491 0.056049563 0.05077114 0.01955311 0.004107505 -0.026297104 0.06135901
-0.0036586449 -0.0099009015 -0.020089336 -0.0010676682 -0.05154536 -0.023974705 -0.008338176 -0.033810936
-0.036381453 0.054585777 0.0018506795 0.003725417 -0.05146127 -0.011153188 -0.016332258 -0.05145321
-0.0493145 0.011415802 0.036921144 0.009764776 0.028779216 -0.049228955 0.025339179 -0.03943201
-0.053013995 0.23751219 0.008861639 -0.035618983 0.028625436 -0.052266534 0.022339068 0.03545463
0.009859167 -0.056939024 0.06291669 -0.014598362 -0.017191473 0.045141138 0.045608804 0.049601696
-0.01199159 -0.29036543 0.040447317 -0.048975144 0.058892682 0.043203667 -0.019727807 0.03391651
0.056448594 -0.008554727 0.05900409 -0.028933577 -0.3334726 -0.029297218 0.03639978 0.04025577
0.06247986 -0.017507065 -0.060784254 0.009002805 -0.061052993 0.005530596 0.026763834 0.026564047
0.040716782 0.034591116 0.010308072 -0.052397326 -0.0020570233 -0.0030348003 -0.053216398 -0.058015436
0.012672648 0.008441299 0.023661882 -0.024781894 0.023460135 -0.055240337 0.0019171014 0.013633668
-0.03862433 -0.01595733 -0.032676782 -0.036978357 0.000116959214 -0.0039497353 -0.0516633 0.03149137
-0.06449113 -0.05995967 0.031052962 -0.029706888 0.04404273 -0.063543215 0.054942936 0.055921815
00000000: 135d aebe 2450 75be 2af4 7fbe a6f0 9cbe
00000010: e644 69be d991 b0be b2f7 85be 962d 67be
00000020: c12e a2be 68e0 69be 3016 cfbc f8eb 76be
00000030: 3872 82be 00b9 d1be a662 7fbe e0ba 68be
00000040: 7cb9 f03c 2850 abbe dc69 7fbe f837 99be
00000050: e35a 86be 64e8 a6be ec0e 7dbe 5ce5 b2be
00000060: fcd2 923c bb25 8bbe b1fa 973e 4930 9fbe
00000070: da60 bbbe ab91 a1be 97a2 9a3e caf3 6abe
00000080: e4bc 543d a240 66be d507 afbe 6afb 84be
00000090: a520 7dbe 7677 82be ba36 66be f71f 9ebe
000000a0: 094a afbe 99dc 9dbe 6058 79be 1aaf c8be
000000b0: 0a79 8dbe edf6 a5be aec6 81be a0b1 93be
000000c0: fcb7 92be 2681 aabe ce5a 81be 6a59 6abe
000000d0: d4a9 a3be 25e4 a4be f4b4 7bbe 32e9 233d
000000e0: d8c2 65be ac5c 75be 106c b2be 3eb1 90be
000000f0: 5ce5 64bd 8893 923c 3018 46bb ba83 45bd
00000100: 34d2 20bc 08cb 34bd 4869 14bc 3896 003d
00000110: 4efc 21bd 005a a7ba 3831 6abe 1d39 6fbd
00000120: 40db 61bb 855b 8a3e 18e9 d9bb 9861 f23c
00000130: 4502 a8be 8884 0d3c 0006 13bc 82e6 713d
00000140: 3091 ec3c 2498 423d a8f4 2b3c c7de 813d
00000150: f101 98be 6891 b03c a2f6 c5be a0fd 003b
00000160: 209b 853e 24f2 b8bc fb54 b9be 3ef4 69bd
00000170: 0ece 6fbe d0ec 8abc 60fc 7c3b 86fe e4bc
00000180: 3e97 0dbe 5c8f 37bc e0ae 2ebd 0868 133c
00000190: 1a99 2c3d ae0e 4ebd c8cf 7b3c 070d 7c3e
000001a0: 36db 8bbc 7fc8 7bbd b80a 9d3c 70e6 d43b
000001b0: 0ea3 c5bc 58a4 d4bc 0671 553d 0cf8 3cbc
000001c0: 6a4d 1f3d e4a2 593d de4e 2abd ba8c 87be
000001d0: fe47 3f3d 18f9 413c bfc3 a73e 763a 81bd
000001e0: 5c7c 653d b411 5cbc 18e9 283d 200e 143c
000001f0: a01d 493d eaae 483d d052 13bd 18d8 723d
00000200: 1027 8c3b c0f6 ae3c 3cb4 07bd 7412 17bc
00000210: 9c94 b33c af51 19bd 1885 da3c 7cb0 0e3d
00000220: a6ea 7b3d 807a a13b 40b0 d83c 12e6 773d
00000230: ca23 003d f234 c4bc 5810 f33c 1aae 253d
00000240: e0c9 6e3c 7ef0 7e3d 7055 5c3d 9a48 65bd
00000250: 804e e6bb 7423 333d 28a9 c23c d8f5 413c
00000260: e1c2 82bd 1e79 363d 3a94 653d 66f5 4f3d
00000270: d82d a03c 4098 863b 066d d7bc 9653 7b3d
00000280: e0c5 6fbb 6437 22bc 6492 a4bc 00f1 8bba
00000290: 3a21 53bd 9a66 c4bc d89c 08bc 567d 0abd
000002a0: b804 15bd 5695 5f3d 8092 f23a 2026 743b
000002b0: 0dc9 52bd dcbb 36bc 3acb 85bc 9ac0 52bd
000002c0: 00fe 49bd 5809 3b3c a03a 173d 70fc 1f3c
000002d0: 64c2 eb3c 4da4 49bd 1c94 cf3c 7683 21bd
000002e0: 3425 59bd 6536 733e 6830 113c 36e5 11bd
000002f0: e47f ea3c 6f15 56bd 6c00 b73c e038 113d
00000300: 5888 213c e538 69bd 77da 803d f82d 6fbc
00000310: 22d5 8cbc eae5 383d 4cd0 3a3d 262b 4b3d
00000320: 6078 44bc c7aa 94be 16ac 253d 299a 48bd
00000330: 7439 713d 54f6 303d 369c a1bc 0aec 0a3d
00000340: a436 673d 2029 0cbc 46ae 713d 1c06 edbc
00000350: ecbc aabe b800 f0bc f017 153d 3ce3 243d
00000360: e2ea 7f3d fa6a 8fbc e9f8 78bd 8080 133c
00000370: b412 7abd 003a b53b d43f db3c d89c d93c
00000380: a4c6 263d 6aaf 0d3d 30e3 283c 949e 56bd
00000390: 20cf 06bb 80e3 46bb 70f9 59bd 98a1 6dbd
000003a0: f0a0 4f3c 604d 0a3c 90d6 c13c 6603 cbbc
000003b0: 782f c03c b143 62bd 4047 fb3a c05f 5f3c
000003c0: 8c34 1ebd f2b8 82bc 17d8 05bd 9e76 17bd
000003d0: 0048 f538 c86c 81bb e59c 53bd 18fd 003d
000003e0: ed13 84bd 4598 75bd c862 fe3c dc5b f3bc
000003f0: 2666 343d f222 82bd d80b 613d 460e 653d

bias f4 [120]
-0.32186624 -0.0023220517 0.22647855 -0.044197757 -0.23296429 0.00046873838 -0.24313857 -0.060272165
-0.257313 -0.24651662 -0.02956206 -0.018258505 -0.3346154 -0.25542456 -0.31644443 -0.24009994
0.044203117 0.0201452 0.04699777 -0.19982928 -0.028916802 0.28029567 -0.050078396 -0.21738964
-0.37557143 -0.22889538 0.061798267 -0.026452325 -0.25239503 -0.26691902 -0.29334608 -0.052023053
-0.2920483 -0.24076228 -0.3231222 -0.1349373 0.17744194 -0.3155732 0.09763571 -0.30576932
-0.3107116 -0.26301998 -0.25102386 -0.2883526 0.023470677 0.26857424 -0.027475704 -0.054889273
-0.28183413 -0.32443523 -0.18066987 -0.008332796 -0.042934798 -0.31734398 -0.2489401 -0.2561338
-0.06394005 -0.3446242 -0.30475813 -0.22533676 -0.32363722 -0.2502885 -0.21533321 0.23705204
-0.008190542 -0.008709017 -0.26670298 -0.05214834 -0.14155859 -0.21330592 0.009179756 -0.33021906
-0.27144444 -0.41717687 -0.09292473 0.2209557 0.0077656507 -0.2064073 -0.26280802 -0.2355467
-0.31914362 0.048906706 -0.23694889 -0.34435034 -0.25055978 -0.013405092 -0.2741298 -0.30556
-0.25419918 -0.30207017 -0.21495515 -0.22412606 -0.25227 -0.34740695 0.03780102 -0.29504418
-0.29515392 0.012549378 -0.21471477 -0.25064662 -0.35604233 -0.041707084 -0.32160282 -0.26771846
-0.055808976 0.053445123 -0.30272594 -0.049162593 -0.16545552 -0.34063834 0.062840424 0.04621192
0.49418265 -0.25001538 -0.3073785 -0.25032166 0.036160544 -0.3175354 -0.2803017 -0.32897615
00000000: a7cb a4be 902d 18bb fee9 673e b508 35bd
00000010: 318e 6ebe 00c1 f539 51f9 78be f2df 76bd
00000020: 88be 83be da6e 7cbe 222c f2bc dc92 95bc
00000030: b652 abbe 02c7 82be 0105 a2be c2dc 75be
00000040: 540e 353d 8c07 a53c bc80 403d 0ca0 4cbe
00000050: eee2 ecbc ea82 8f3e 011f 4dbd 649b 5ebe
00000060: e64a c0be 8d63 6abe 2e20 7d3d 8cb2 d8bc
00000070: ec39 81be 9ca9 88be 7531 96be 2016 55bd
00000080: 5b87 95be 638a 76be 4670 a5be 012d 0abe
00000090: 57b3 353e cf92 a1be 3bf5 c73d cc8d 9cbe
000000a0: 9715 9fbe 8eaa 86be 3386 80be f4a2 93be
000000b0: 9445 c03c 9082 893e ba14 e1bc 93d3 60bd
000000c0: 904c 90be 601c a6be 8601 39be 4886 08bc
000000d0: 66dc 2fbd e97a a2be 27ea 7ebe f823 83be
000000e0: 00f3 82bd 9572 b0be 4209 9cbe aebe 66be
000000f0: c7b3 a5be d025 80be 4f80 5cbe c5bd 723e
00000100: a031 06bc 44b0 0ebc 4b8d 88be 7f99 55bd
00000110: bcf4 10be de6c 5abe b066 163c 7912 a9be
00000120: c4fa 8abe 3598 d5be 524f bebd 3642 623e
00000130: 0077 fe3b 6f5c 53be c68e 86be 2733 71be
00000140: cb66 a3be 6652 483d bba2 72be b04e b0be
00000150: 5f49 80be 08a1 5bbc be5a 8cbe 5c72 9cbe
00000160: 6526 82be f1a8 9abe 341d 5cbe 4d81 65be
00000170: 8929 81be 53df b1be 3ed5 1a3d 0810 97be
00000180: 6a1e 97be e89b 4d3c 30de 5bbe c154 80be
00000190: 2e4b b6be 0cd5 2abd 20a9 a4be 6512 89be
000001a0: f497 64bd 46e9 5a3d e5fe 9abe b75e 49bd
000001b0: 2c6d 29be 2668 aebe 7bb2 803d b648 3d3d
000001c0: 8205 fd3e 0402 80be b760 9dbe 292a 80be
000001d0: 141d 143d 0094 a2be b483 8fbe 906f a8be

weight f4 [61, 120]
-0.40267065 0.06466158 0.03332627 -0.34888503 -0.2744033 -0.010033242 -0.35360095 0.03176885
-0.26224315 -0.003940603 0.013508625 -0.0021257102 -0.20213167 -0.3385288 -0.30079538 -0.33390146
-0.0039438233 0.06686355 0.076222554 -0.2586559 -0.08506547 -0.45185983 -0.0019732788 -0.24209341
-0.31031755 -0.2905465 0.08868103 0.0814513 -0.3448002 -0.30385506 -0.44011232 -0.075070746
-0.22104602 -0.34394634 -0.5720638 -0.40023515 -0.61565876 -0.21929476 -0.78187317 -0.2511583
-0.21283007 0.05636217 -0.23117805 -0.38090098 -0.06512678 -0.8296719 0.05469568 -0.026742488
-0.4071275 -0.28747392 -0.25156578 -0.054502953 0.051539972 -0.17688885 -0.25044146 -0.26153085
-0.059821248 -0.48694897 -0.37521592 -0.47750443 -0.3918272 0.044013694 -0.402796 -0.014011445
-0.030681841 0.0009114444 -0.28997064 0.037973627 -0.38760597 -0.3989282 -0.08256567 -0.61719537
-0.44279748 -0.5589333 -0.48597476 -0.8543911 -0.041380372 -0.44660726 -0.26280218 -0.56936884
-0.3083279 -0.07983233 -0.38382098 -0.2519319 -0.26768935 -0.00018809736 -0.33865744 -0.68148375
-0.23636726 -0.30994192 -0.313071 -0.39657274 -0.28355047 -0.30056125 -0.037547845 -0.36655417
-0.41880032 0.017074235 -0.14709082 -0.22433811 -0.22569108 -0.068927586 -0.30316153 -0.3486933
-0.081739046 -0.056538656 -0.47971 0.050284177 -0.5280571 -0.3605999 -0.024885237 0.01038114
-0.3588568 -0.2741731 -0.3137987 -0.38396683 0.07179843 -0.34923542 -0.39344123 -0.13272691
-0.33115947 0.07241957 0.030856336 -0.36215588 -0.2953483 0.02985175 -0.3029518 0.06144747
-0.21339695 0.010372517 -0.00065407157 -0.08249255 -0.26359043 -0.39151272 -0.26884702 -0.2818048
-0.04432985 -0.034775686 0.07493773 -0.3472757 0.058984637 -0.32306328 0.045352876 -0.17009114
-0.3054983 -0.22448146 0.0894528 -0.084840834 -0.32579762 -0.18275085 -0.5730346 0.0066990033
-0.20221668 -0.27536395 -0.49863222 -0.37236762 -0.4678323 -0.35616753 -0.7089829 -0.2289983
-0.34763592 -0.09457723 -0.2626896 -0.50052845 0.06999296 -0.9354976 0.06893365 -0.08208573
-0.29170185 -0.3399642 -0.2719414 0.080938995 0.030893274 -0.23643866 -0.36870703 -0.37341687
-0.087539606 -0.35312188 -0.33959556 -0.5932693 -0.4078671 0.038205814 -0.46948636 -0.004821204
-0.0020844191 0.06850895 -0.36095142 -0.051751915 -0.32936668 -0.33430907 -0.01190225 -0.6075032
-0.35538584 -0.6398678 -0.511139 -0.94297796 0.013965584 -0.4112066 -0.3910399 -0.5697034
-0.25411174 -0.040543787 -0.41897526 -0.29582396 -0.32413596 -0.06511302 -0.3339611 -0.658951
-0.2631328 -0.38583604 -0.18491797 -0.45139983 -0.35912183 -0.22224669 0.006471686 -0.32308576
-0.3772648 0.03573446 -0.09891142 -0.2528328 -0.22849345 -0.086887725 -0.40228677 -0.36810526
0.004019387 -0.046684153 -0.42651513 0.062063098 -0.40541425 -0.36594805 0.056889117 0.039736763
-0.3661676 -0.28143683 -0.28138453 -0.36793777 -0.06304694 -0.37540507 -0.37159684 -0.03821182
-0.29440987 -0.015733317 -0.0066732387 -0.501075 -0.3981657 0.0032333955 -0.3644068 -0.04912524
-0.2679171 -0.087862566 0.04586442 0.068660945 -0.009138602 -0.42448026 -0.2678995 -0.30862698
00000000: d92a cebe 4a6d 843d 2081 083d 0fa1 b2be
00000010: 977e 8cbe 7862 24bc 2f0b b5be 0e20 023d
00000020: bc44 86be 2d20 81bb 4853 5d3c 804f 0bbb
00000030: 9bfb 4ebe a653 adbe da01 9abe 22f5 aabe
00000040: 303b 81bb c2ef 883d 921a 9c3d 8c6e 84be
00000050: ce36 aebd 2c5a e7be 2052 01bb 56e7 77be
00000060: f1e1 9ebe 83c2 94be 669e b53d f0cf a63d
00000070: a789 b0be e492 9bbe 6756 e1be b1be 99bd
00000080: e359 62be bc19 b0be c672 12bf 9feb ccbe
00000090: d09b 1dbf ce8e 60be d728 48bf d297 80be
000000a0: 20f0 59be 05dc 663d f0b9 6cbe 7405 c3be
000000b0: 3061 85bd 6165 54bf 9408 603d 1013 dbbc
000000c0: 0473 d0be c82f 93be 3bcd 80be 7d3e 5fbd
000000d0: 941b 533d 5a22 35be dd39 80be 5fe7 85be
000000e0: 2007 75bd 6051 f9be 4d1c c0be 767b f4be
000000f0: 939d c8be b447 343d 473b cebe 4390 65bc
00000100: 7c58 fbbc 00ee 6e3a 0877 94be 3c8a 1b3d
00000110: 4a74 c6be 5140 ccbe 3118 a9bd 8400 1ebf
00000120: 5ab6 e2be 4116 0fbf afd1 f8be 60b9 5abf
00000130: 777e 29bd b5a9 e4be 028e 86be 28c2 11bf
00000140: 28dd 9dbe 227f a3bd 2f84 c4be 38fd 80be
00000150: 940e 89be 003c 45b9 8264 adbe b875 2ebf
00000160: 420a 72be b5b0 9ebe d84a a0be 950b cbbe
00000170: 872d 91be 2ae3 99be c5cb 19bd fdac bbbe
00000180: ff6c d6be 44df 8b3c fa9e 16be e4b8 65be
00000190: 901b 67be e829 8dbd fd37 9bbe ee87 b2be
000001a0: cd66 a7bd 1495 67bd 8d9c f5be c8f6 4d3d
000001b0: c02e 07bf 8da0 b8be 20dc cbbc a815 2a3c
000001c0: 14bc b7be 6b60 8cbe 39aa a0be 4d97 c4be
000001d0: 0e0b 933d fcce b2be 2171 c9be 90e9 07be
000001e0: bc8d a9be b650 943d 6dc6 fc3c 7f6c b9be
000001f0: e437 97be a88b f43c 801c 9bbe 58b0 7b3d
00000200: bb84 5abe 7df1 293c 0076 2bba dbf1 a8bd
00000210: 53f5 86be 5b74 c8be 51a6 89be b848 90be
00000220: 3793 35bd f370 0ebd f478 993d 1fce b1be
00000230: e099 713d 8d68 a5be f0c3 393d 5f2c 2ebe
00000240: 466a 9cbe 78de 65be 0833 b73d 08c1 adbd
00000250: f2ce a6be 0a23 3bbe 65b2 12bf 5083 db3b
00000260: e411 4fbe 81fc 8cbe b94c ffbe f8a6 bebe
00000270: b787 efbe 975b b6be e77f 35bf 887e 6abe
00000280: 56fd b1be b5b1 c1bd 407f 86be a222 00bf
00000290: 7858 8f3d c57c 6fbf 162d 8d3d 901c a8bd
000002a0: f259 95be ca0f aebe e73b 8bbe 58c3 a53d
000002b0: e413 fd3c fa1c 72be 2bc7 bcbe 7f30 bfbe
000002c0: f747 b3bd 64cc b4be 78df adbe 7fe0 17bf
000002d0: f5d3 d0be b37d 1c3d 8460 f0be 31fb 9dbb
000002e0: c09a 08bb 6c4e 8c3d a0ce b8be d1f9 53bd
000002f0: c0a2 a8be 8f2a abbe a801 43bc 5485 1bbf
00000300: 22f5 b5be 60ce 23bf 01da 02bf 0167 71bf
00000310: e8cf 643c ac89 d2be 6236 c8be 15d8 11bf
00000320: ef1a 82be 3e11 26bd ed83 d6be 3d76 97be
00000330: 26f5 a5be fa59 85bd f3fc aabe 03b1 28bf
00000340: 58b9 86be 4d8c c5be 235b 3dbe e11d e7be
00000350: d1de b7be a394 63be 7010 d43b 7f6b a5be
00000360: da28 c1be 4c5e 123d 1292 cabd 4d73 81be
00000370: 30fa 69be 31f2 b1bd 88f8 cdbe 4b78 bcbe
00000380: 10b5 833b e237 3fbd 3160 dabe e035 7e3d
00000390: 7592 cfbe 8b5d bbbe 9004 693d 04c3 223d
000003a0: 527a bbbe 7d18 90be a211 90be 5762 bcbe
000003b0: c11e 81bd 1835 c0be f141 bebe ff83 1cbd
000003c0: e4bc 96be 28e3 80bc 2fab dabb 7446 00bf
000003d0: 60dc cbbe 60e7 533b 8793 babe 8c37 49bd
000003e0: 6e2c 89be 4af1 b3bd 54dc 3b3d 1c9e 8c3d
000003f0: 13ba 15bc 7a55 d9be 202a 89be 5b04 9ebe

bias f4 [61]
-0.84283257 -0.788349 -1.0175588 -0.92525595 -0.96185905 -0.94190484 -0.75707823 -1.0282614
-0.8381896 -1.1246737 -0.16029209 -0.93685144 -0.9458763 -1.0941774 -1.0820382 -1.0346248
-0.1804135 -1.0317428 -0.84512883 -0.83531326 -1.0331583 -0.8763602 -0.9916558 -0.72709644
0.012805671 -0.89549905 -0.019540899 -0.7956817 -0.7781407 -0.8599546 -0.14932917 -0.8883999
-0.29219204 -0.91887575 -1.0472001 -1.0015689 -0.03858165 -0.97907966 -0.7658615 -0.89909
-0.89652044 -0.8701225 -0.9568809 -0.018578392 -0.77460897 -1.0290129 -0.7051495 -0.9901553
-0.85256076 -0.7581608 -0.87665635 -0.9392413 -0.8476536 -0.8085854 -0.97387743 -0.25902438
-0.9355853 -0.8766809 -0.800751 -0.8371907 0.19868678
00000000: e0c3 57bf 3dd1 49bf 5e3f 82bf 93dd 6cbf
00000010: 653c 76bf ad20 71bf e1cf 41bf 129e 83bf
00000020: 9893 56bf 4ff5 8fbf 9c23 24be 7fd5 6fbf
00000030: f324 72bf 010e 8cbf 3a80 8abf 966e 84bf
00000040: 51be 38be 2610 84bf 5d5a 58bf 17d7 55bf
00000050: 883e 84bf 2459 60bf 28dd 7dbf fe22 3abf
00000060: e1ce 513c 6d3f 65bf 3c14 a0bc ccb1 4bbf
00000070: 3b34 47bf fc25 5cbf bfe9 18be 2d6e 63bf
00000080: 329a 95be 713b 6bbf a70a 86bf 6933 80bf
00000090: cb07 1ebd f7a4 7abf 800f 44bf c32a 66bf
000000a0: 5d82 65bf 59c0 5ebf 26f6 74bf b631 98bc
000000b0: c64c 46bf b2b6 83bf ad84 34bf d17a 7dbf
000000c0: 6c41 5abf d416 42bf 8d6c 60bf 1e72 70bf
000000d0: d4ff 58bf 74ff 4ebf 0850 79bf d89e 84be
000000e0: 8582 6fbf 296e 60bf 04fe 4cbf 2152 56bf
000000f0: 8c74 4b3e
