checkpoint/REINFORCE/reinforce-agent-[50000]-[0.0001]-[0.95]-stanford.pt (torch, 147679 bytes, 4 tensors)

weight f4 [120, 240]
0.028571114 0.112353295 0.076425776 0.06620285 0.0504945 0.022261942 -0.0036608223 0.056217033
0.0001595507 0.042645954 0.076350875 0.006764797 0.06738984 0.08240446 0.044936333 0.05542842
-0.0011206943 0.015305366 0.030152382 0.0768859 -0.022793297 0.10432515 0.006346755 0.020924713
0.0386591 -0.00016157657 0.031174285 0.08030825 -0.0013956722 0.117481284 0.04629633 0.084639505
0.094581425 -0.012743486 0.0006492998 0.106986344 0.023542754 0.110972404 0.07700822 0.063274354
0.04790003 0.082324974 0.058175318 0.11683587 0.08896796 0.11030806 -0.0022361334 0.09261537
0.010206584 0.06620909 0.0028239656 0.036048863 0.062798224 0.099327035 0.05332491 0.1133608
0.055906143 0.11148893 0.056468796 0.03730827 0.06195472 -0.03922665 0.07077521 -0.021966984
0.000320342 0.012061333 0.010552887 -0.04604146 -0.009553587 0.03015861 0.061341666 0.0013317519
-0.00990684 0.0462602 0.0026960133 -0.013895869 0.052075427 0.03990006 -0.03824791 0.07137395
-0.0046300166 0.07801084 -0.023444531 -0.049110524 0.058577064 0.064634785 -0.021613814 0.027711092
0.07019209 -0.092308015 0.009164439 -0.05026134 -0.034803897 0.034943234 0.020426787 0.0961522
-0.0412337 -0.028193148 0.017586 0.0410717 0.06891991 -0.02599137 0.024383936 0.061008357
0.0010270922 -0.02722919 0.025363378 -0.0033273958 0.011662179 0.032944262 0.0439166 0.0394314
0.016004529 0.033078928 0.1032732 -0.03711349 0.04091761 -0.052702844 -0.04117558 -0.0026809636
0.045479923 0.06706485 -0.045205735 0.014041532 -0.030418132 -0.010185793 -0.039621387 0.07517819
0.00032473402 0.04115582 0.018090464 0.052140366 0.021501454 0.051564217 0.038901143 0.05135753
-0.03471408 0.028277887 0.059761684 -0.05555779 0.066534206 0.04259734 0.04493515 -0.04370002
0.0032827987 -0.02009548 -0.020975024 0.052352443 0.012923546 -0.059399646 0.04621289 -0.059226777
-0.011587324 -0.02174263 -0.003146741 -0.042303447 -0.03371503 0.008441933 -0.053098027 0.05158578
-0.06374969 0.0005544408 -0.03921347 0.0028690398 -0.013326395 -0.013942368 0.04154354 0.017068358
-0.017729167 -0.009773554 0.020774331 -0.053463377 -0.009000892 -5.1486808e-05 0.0207712 -0.018532472
0.05364265 -0.06078231 -0.00701892 -0.0040888004 -0.04551411 0.043090455 -0.060932543 -0.035117496
0.04584485 -0.010568606 0.04458492 -0.021417083 0.04223712 0.07674647 -0.05146006 -0.052967247
0.024345392 0.07649339 0.058263533 0.012219704 0.02884686 0.043820415 0.01266857 0.0011290198
0.011219136 0.057362348 0.04726346 0.06343552 -0.048868462 0.024138724 -0.013174392 -0.04258034
0.036109965 0.019067481 0.045194548 -0.01645638 0.008633655 0.038862497 -0.067758955 0.061551046
0.016074687 -0.021627566 0.04250689 -0.036066476 -0.070984185 0.025088586 0.059904486 -0.013562441
-0.048850384 0.051927805 0.025229584 -0.046907585 -0.013022328 0.05931523 0.06310159 -0.047941446
-0.0062849256 -0.005005569 0.002093135 0.041937236 0.00749358 0.01679912 0.084387355 -0.03226554
0.009688781 0.044516034 0.08666235 0.08341986 0.069108166 0.05582322 0.04236846 0.102396324
0.13279091 0.11608803 0.06294456 0.09815728 0.10278379 0.028974373 0.12387537 0.069224104
00000000: f80d ea3c 7c19 e63d 1e85 9c3d 5c95 873d
00000010: 52d3 4e3d ad5e b63c 68ea 6fbb d543 663d
00000020: 114d 2739 86ad 2e3d d95d 9c3d 3bab dd3b
00000030: af03 8a3d abc3 a83d 290f 383d e908 633d
00000040: 43e4 92ba 5cc3 7a3c 2102 f73c 5b76 9d3d
00000050: 02b9 babc 6da8 d53d 71f8 cf3b 4e6a ab3c
00000060: 0159 1e3d e16c 29b9 3761 ff3c a778 a43d
00000070: fdee b6ba 079a f03d 38a1 3d3d 7a57 ad3d
00000080: e8b3 c13d 0eca 50bc c635 2a3a a81b db3d
00000090: bcdc c03c 8045 e33d 7cb6 9d3d fc95 813d
000000a0: d232 443d ff99 a83d 3e49 6e3d a547 ef3d
000000b0: d534 b63d 31e9 e13d 188c 12bb 21ad bd3d
000000c0: 8439 273c a298 873d 4812 393b f9a7 133d
000000d0: 5b9c 803d f96b cb3d 396b 5a3d b529 e83d
000000e0: d7fd 643d 4f54 e43d d34b 673d 8ed0 183d
000000f0: 3cc4 7d3d 20ac 20bd 98f2 903d 1bf4 b3bc
00000100: 93f3 a739 e69c 453c 04e6 2c3c f895 3cbd
00000110: a686 1cbc 300f f73c 6641 7b3d 2e8e ae3a
00000120: 4c50 22bc 567b 3d3d 99af 303b 80ab 63bc
00000130: 0b4d 553d 3f6e 233d d7a9 1cbd 812c 923d
00000140: 65b7 97bb 26c4 9f3d bf0e c0bc 1e28 49bd
00000150: 81ee 6f3d 3e5f 843d 740f b1bc 5f02 e33c
00000160: dfc0 8f3d fc0b bdbd 7126 163c d6de 4dbd
00000170: 888e 0ebd a320 0f3d 1456 a73c 72eb c43d
00000180: abe4 28bd 51f5 e6bc 8410 903c cd3a 283d
00000190: e225 8d3d dbeb d4bc d2c0 c73c e6e3 793d
000001a0: 7f9f 863a c00f dfbc dcc6 cf3c 7010 5abb
000001b0: b912 3f3c 90f0 063d e5e1 333d d282 213d
000001c0: ee1b 833c c57d 073d e680 d33d 5104 18bd
000001d0: 3999 273d f0de 57bd baa7 28bd 1bb3 2fbb
000001e0: 2849 3a3d 4c59 893d a629 39bd 740e 663c
000001f0: 722f f9bc 50e2 26bc 094a 22bd 06f7 993d
00000200: 1041 aa39 0193 283d 7432 943c 2391 553d
00000210: d123 b03c 0035 533d ce56 1f3d 465c 523d
00000220: 5a30 0ebd 07a7 e73c abc8 743d 9190 63bd
00000230: 1643 883d 8c7a 2e3d eb0d 383d cbfe 32bd
00000240: 3924 573b 479f a4bc d0d3 abbc 846f 563d
00000250: 48bd 533c 0b4d 73bd ba49 3d3d c797 72bd
00000260: c2d8 3dbc 9a1d b2bc 8e39 4ebb 6146 2dbd
00000270: c518 0abd 0950 0a3c 517d 59bd 9c4b 533d
00000280: 338f 82bd e457 113a 4e9e 20bd 8006 3c3b
00000290: f456 5abc 886e 64bc 8f29 2a3d f1d2 8b3c
000002a0: c23c 91bc 4221 20bc ee2e aa3c 6afc 5abd
000002b0: 7a78 13bc 8af3 57b8 5d28 aa3c 69d1 97bc
000002c0: 65b8 5b3d dff6 78bd f8fe e5bb 58fb 85bb
000002d0: 016d 3abd 9e7f 303d 6794 79bd 5dd7 0fbd
000002e0: cfc7 3b3d f227 2dbc ad9e 363d e172 afbc
000002f0: d500 2d3d 412d 9d3d c9c7 52bd 2ff4 58bd
00000300: fd6f c73c 91a8 9c3d bea5 6e3d 2735 483c
00000310: 4050 ec3c 097d 333d d58f 4f3c 9efb 933a
00000320: 78d0 373c c8f4 6a3d 5497 413d 7bea 813d
00000330: 4c2a 48bd 93be c53c 68d9 57bc b968 2ebd
00000340: 0be8 133d 6833 9c3c eb1d 393d 88cf 86bc
00000350: 2c74 0d3c 482e 1f3d 35c5 8abd f31c 7c3d
00000360: 10af 833c 4b2c b1bc b41b 2e3d 71ba 13bd
00000370: 2860 91bd 9486 cd3c 685e 753d 0035 5ebc
00000380: 5717 48bd 40b2 543d 46ae ce3c 2b22 40bd
00000390: 9a5b 55bc 87f4 723d 683b 813d 405e 44bd
000003a0: c7f1 cdbb c205 a4bb fa2c 093b 61c6 2b3d
000003b0: b58c f53b 4f9e 893c 47d3 ac3d df28 04bd
000003c0: b1bd 1e3c 7256 363d 087c b13d 08d8 aa3d
000003d0: 9588 8d3d e4a6 643d 8d8a 2d3d 2ab5 d13d
000003e0: 57fa 073e 90bf ed3d 14e9 803d af06 c93d
000003f0: 4f80 d23d aa5b ed3c 5fb2 fd3d 5ec5 8d3d

bias f4 [120]
0.11555588 0.014496029 0.023270046 0.11454882 -0.056121387 0.07645531 -0.038755056 0.14554754
-0.052755285 0.10025394 -0.03789595 0.04164608 0.052169748 -0.016055785 -0.016665135 0.011650579
0.1341479 0.0057603233 0.0077203293 0.080107 0.01095519 0.10070427 -0.0059993397 0.0381606
0.018289072 0.013520345 0.04794366 0.06238683 -0.05920632 0.06433824 0.08732621 0.009864872
0.048635613 0.002493032 0.008673551 0.07775617 0.10285346 0.09972898 0.088061675 -0.056297258
0.101287924 0.13428955 -0.06371495 0.053043332 0.06946275 0.026086267 -0.05897317 -0.05137246
0.0008527479 0.029917723 -0.007407156 0.021097258 0.0044738944 -0.05350671 0.12352218 0.048290614
0.03522864 -0.06396024 0.083194114 0.0150092 -0.063263886 0.062298827 0.060137477 0.051972862
0.01697123 0.021563713 -0.026442034 0.12702876 0.00067684054 0.09319039 0.12706685 0.03784092
0.07194686 0.047682364 0.060410332 -0.06460323 0.026443467 0.107151 -0.010645 0.056791887
-0.009301283 0.10538144 0.04601729 0.043781064 -0.024742331 0.06529375 -0.03447228 0.008592481
-0.039341766 0.10285117 -0.054842256 0.0046662884 0.116603665 0.045218892 0.11770542 -0.046269286
0.02259619 0.023946133 0.03439367 -0.030662183 -0.04736665 0.028302645 0.020081894 0.011693297
0.026611324 -0.00432969 0.061458737 -0.04039152 -0.008133976 -0.06465228 0.08267569 0.022368278
-0.067686364 0.06788051 0.04681776 -0.042551443 0.024156595 0.020286871 0.09318366 -0.04301688
00000000: 90a8 ec3d c180 6d3c d3a0 be3c 9298 ea3d
00000010: 8adf 65bd 9a94 9c3d 9fbd 1ebd 6a0a 153e
00000020: ed15 58bd f051 cd3d c938 1bbd 1495 2a3d
00000030: f2af 553d 6c87 83bc 5285 88bc 12e2 3e3c
00000040: 115e 093e 18c1 bc3b d1fa fc3b 240f a43d
00000050: 667d 333c 0a3e ce3d 1c96 c4bb 4a4e 1c3d
00000060: f7d2 953c 7084 5d3c 9260 443d 5589 7f3d
00000070: 5482 72bd c4c3 833d 16d8 b23d 46a0 213c
00000080: 2336 473d 2362 233b 821b 0e3c a03e 9f3d
00000090: d6a4 d23d b53e cc3d ae59 b43d f497 66bd
000000a0: 0b70 cf3d 3383 093e fc7c 82bd f743 593d
000000b0: 7c42 8e3d deb2 d53c da8d 71bd ee6b 52bd
000000c0: f18a 5f3a 0316 f53c bab7 f2bb 28d4 ac3c
000000d0: bf99 923b da29 5bbd 32f9 fc3d 61cc 453d
000000e0: e84b 103d 96fd 82bd ad61 aa3d 26e9 753c
000000f0: 7f90 81bd 0e2d 7f3d b752 763d 7fe1 543d
00000100: 4007 8b3c 62a6 b03c f79c d8bc d413 023e
00000110: 006e 313a 9ada be3d d01d 023e 15ff 1a3d
00000120: e058 933d 954e 433d d370 773d b34e 84bd
00000130: f89f d83c fc71 db3d 5e68 2ebc 9c9e 683d
00000140: 6964 18bc 39d2 d73d a07c 3c3d c653 333d
00000150: 6eb0 cabc bbb8 853d ce32 0dbd 7ac7 0c3c
00000160: d524 21bd a2a3 d23d 46a2 60bd aae7 983b
00000170: e7cd ee3d 7237 393d 8a0f f13d dd84 3dbd
00000180: a51b b93c ae2a c43c 60e0 0c3d 422f fbbc
00000190: 8803 42bd f3da e73c c982 a43c 3e95 3f3c
000001a0: feff d93c 12e0 8dbb 28bc 7b3d 9471 25bd
000001b0: 5e44 05bc 6a68 84bd df51 a93d ae3d b73c
000001c0: 269f 8abd f004 8b3d fbc3 3f3d 6c4a 2ebd
000001d0: 0de4 c53c a730 a63c 13d7 be3d 7832 30bd

weight f4 [61, 120]
0.064359844 -0.033068184 0.06317333 0.087043405 -0.091564365 0.041960925 -0.077877164 -0.043829937
-0.022150125 0.01822089 -0.0774475 0.11552701 -0.06814251 -0.030569268 -0.03331918 0.06477727
0.02828786 -0.07295685 0.079973765 -0.018800393 0.05429978 -0.041384485 0.024194926 0.021943042
0.03707275 0.028566023 0.073946044 -0.034351792 0.077010885 -0.061556518 0.013016477 0.023870949
0.046117138 0.02105205 -0.015288867 0.016778694 0.05636775 -0.06559314 -0.05035739 -0.026557084
-0.018956097 -0.031745553 -0.054395266 0.04399232 0.0397454 -0.06333687 0.03783062 0.006229897
-0.10948122 -0.07735217 0.0023682374 -0.06636198 -0.01871504 -0.07607881 -0.016559217 -0.028948365
-0.03000639 0.09335953 -0.050199226 0.05675779 -0.07969638 -0.049213137 -0.054935344 0.022176122
0.024732882 0.051766325 -0.04563179 0.033003453 0.015737526 0.056029003 -0.0049010213 -0.06717421
-0.07021659 0.035553493 0.10377818 -0.069242455 0.050966088 -0.0091851335 0.015259154 0.060389042
-0.008940857 0.009388753 0.027927596 -0.040572442 0.03929363 -0.06656621 0.052350055 -0.06087293
0.04852822 0.10071885 0.05026511 -0.033156414 -0.03006928 -0.0005173418 0.10425605 0.011593514
-0.014329179 -0.015781242 -0.021087177 0.0033963723 0.057154395 -0.049485788 0.087462395 0.068075195
-0.06896054 -0.057887368 0.039079502 -0.02231396 -0.031562157 0.044095222 -0.048683535 0.025525302
0.03332331 -0.031488083 0.030301966 -0.047856867 -0.009140593 -0.0261653 0.08223698 -0.007122746
0.05786114 -0.025095463 -0.01955275 0.073127225 0.026492428 0.09569004 -0.015748123 0.09790454
0.06797464 0.09349277 -0.032512188 -0.0046101282 0.004944485 0.07591402 0.02647899 0.028758863
0.063676216 0.04570554 -0.044126343 0.058494158 -0.03590741 0.014071404 -0.04066079 0.04931867
-0.0389144 -0.059553098 0.010443575 -0.05697721 -0.01338947 -0.09103917 -0.04012241 0.06224251
-0.07993162 -0.044270296 -0.0086177895 0.011629191 -0.057860605 0.06278554 -0.000662438 -0.009767149
0.09476687 -0.045651905 -0.0078008627 -0.06259695 0.09165012 -0.08794906 -0.0010775173 0.09139879
0.029635256 0.09080905 -0.075149685 -0.016012145 -0.011669278 0.036698494 0.079884544 0.05829102
0.029460331 0.08091969 0.014619914 -0.0699231 -0.04121456 -0.03201541 0.07624916 0.08348214
-0.050176498 -0.0071513196 0.0063345022 -0.031465948 0.08938955 0.009744163 0.024128601 -0.080985084
0.04278086 -0.06872484 0.015637055 -0.065703064 -0.033319745 0.09700074 -0.05195164 -0.047029674
-0.07174139 0.061842717 -0.02294397 0.09074168 -0.077929154 -0.072669804 -0.038522135 -0.06717761
-0.042448428 0.100851856 0.010990639 -0.051939186 0.0614471 0.09918887 0.099927165 0.029852862
-0.028243773 -0.06715794 -0.014332301 0.0650919 -0.03898704 -0.043948133 0.01758252 0.093627356
0.038763806 0.084556095 0.026530689 -0.04150365 0.0064590783 0.059617795 -0.031527076 0.02253828
-0.047830403 0.010937181 0.040550813 -0.026514227 0.010495 0.01710517 0.03224356 0.0023904345
-0.06130322 0.051091287 0.09302138 0.03527389 0.08593874 0.06958418 0.04484375 0.008911602
-0.00026058432 0.090782076 0.09522742 -0.08045291 0.0011612368 -0.052875 -0.03552138 0.03719463
00000000: 18cf 833d 8172 07bd 0561 813d d043 b23d
00000010: 1986 bbbd 38df 2b3d 107e 9fbd 0587 33bd
00000020: 2e74 b5bc fa43 953c cb9c 9ebd 6d99 ec3d
00000030: 4d8e 8bbd 676c fabc b179 08bd f2a9 843d
00000040: f1bb e73c 676a 95bd 49c9 a33d 4803 9abc
00000050: 7269 5e3d c782 29bd 7034 c63c e5c1 b33c
00000060: 99d9 173d 4b03 ea3c 0671 973d 77b4 0cbd
00000070: e2b7 9d3d b022 7cbd 1043 553c 028d c33c
00000080: 53e5 3c3d 5975 ac3c 287e 7abc 7973 893c
00000090: dfe1 663d b255 86bd 8d43 4ebd 3e8e d9bc
000000a0: d149 9bbc a007 02bd 92cd 5ebd 4a31 343d
000000b0: 13cc 223d c3b6 81bd 48f4 1a3d 2a24 cc3b
000000c0: b137 e0bd d16a 9ebd 6e34 1b3b cae8 87bd
000000d0: 4950 99bc 35cf 9bbd 32a7 87bc 1f25 edbc
000000e0: f6cf f5bc 4833 bf3d b49d 4dbd db7a 683d
000000f0: db37 a3bd b793 49bd e203 61bd b3aa b53c
00000100: 9d9c ca3c ed08 543d 66e8 3abd a12e 073d
00000110: fceb 803c ab7e 653d bf98 a0bb a292 89bd
00000120: b7cd 8fbd 8aa0 113d a889 d43d fdce 8dbd
00000130: d1c1 503d 3e7d 16bc 8801 7a3c 805a 773d
00000140: ac7c 12bc 49d3 193c 6ac8 e43c 4a2f 26bd
00000150: 5bf2 203d dd53 88bd 036d 563d e555 79bd
00000160: 87c5 463d af45 ce3d cae2 4d3d 05cf 07bd
00000170: da53 f6bc 389e 07ba 3284 d53d b9f2 3d3c
00000180: efc4 6abc aa47 81bc 04bf acbc ac95 5e3b
00000190: ba1a 6a3d 9cb1 4abd 7c1f b33d 026b 8b3d
000001a0: 2f3b 8dbd 4e1b 6dbd d411 203d c4cb b6bc
000001b0: 5247 01bd 319d 343d 6368 47bd 701a d13c
000001c0: 067e 083d a6f9 00bd d43b f83c 9005 44bd
000001d0: 6dc2 15bc 9c58 d6bc dd6b a83d ed65 e9bb
000001e0: ceff 6c3d 0095 cdbc 172d a0bc bac3 953d
000001f0: a606 d93c 24f9 c33d 3502 81bc 2d82 c83d
00000200: 4a36 8b3d 2379 bf3d 802b 05bd 8f10 97bb
00000210: 5905 a23b cf78 9b3d 78ea d83c b597 eb3c
00000220: ad68 823d bb35 3b3d d3bd 34bd 9297 6f3d
00000230: a613 13bd bf8b 663c ee8b 26bd 6002 4a3d
00000240: b564 1fbd f3ed 73bd 871b 2b3c ef60 69bd
00000250: 825f 5bbc bf72 babd 6557 24bd 01f2 7e3d
00000260: 30b3 a3bd c554 35bd a131 0dbc 5d88 3e3c
00000270: 3eff 6cbd b595 803d 76a7 2dba 6406 20bc
00000280: 2215 c23d 7efd 3abd 619e ffbb d432 80bd
00000290: 0fb3 bb3d a31e b4bd 7b3b 8dba 4a2f bb3d
000002a0: a3c5 f23c 18fa b93d 14e8 99bd e72b 83bc
000002b0: 8030 3fbc 2951 163d 829a a33d 91c2 6e3d
000002c0: cb56 f13c 39b9 a53d 5d88 6f3c d833 8fbd
000002d0: 99d0 28bd 9722 03bd 8528 9c3d aff8 aa3d
000002e0: df85 4dbd 9e55 eabb a891 cf3b 70e2 00bd
000002f0: de11 b73d fba5 1f3c 58a9 c53c 82db a5bd
00000300: fc3a 2f3d 9cbf 8cbd 4819 803c 548f 86bd
00000310: 497a 08bd 53a8 c63d 3ecb 54bd 30a2 40bd
00000320: 26ed 92bd ca4e 7d3d fef4 bbbc c6d6 b93d
00000330: 5299 9fbd e8d3 94bd 63c9 1dbd 6a94 89bd
00000340: 67de 2dbd 6b8b ce3d 1512 343c 2fbe 54bd
00000350: f4af 7b3d 8923 cb3d 9da6 cc3d fd8d f43c
00000360: 7c5f e7bc 1a8a 89bd 07d2 6abc e74e 853d
00000370: e0b0 1fbd f502 34bd 3809 903c b3bf bf3d
00000380: ccc6 1e3d bf2b ad3d e356 d93c bbff 29bd
00000390: ada6 d33b ca31 743d 8922 01bd 33a2 b83c
000003a0: d0e9 43bd dd31 333c 9c18 263d 5d34 d9bc
000003b0: 38f3 2b3c 2420 8c3c d311 043d d6a8 1c3b
000003c0: 1619 7bbd 1945 513d fe81 be3d 5b7b 103d
000003d0: a600 b03d 2782 8e3d 14ae 373d f801 123c
000003e0: 099f 88b9 f4eb b93d 9806 c33d 7fc4 a4bd
000003f0: a434 983a 7593 58bd de7e 11bd 6559 183d

bias f4 [61]
-0.0075613656 -0.0034795005 -0.023259485 -0.05585621 0.006450737 0.09147443 -0.06811606 0.07030503
-0.056354333 0.092911296 0.036734767 0.08557146 0.016575577 0.009774738 -0.04917523 -0.04947766
0.058438998 0.071897715 0.0906421 -0.08111117 -0.034316614 -0.06659809 -0.044650055 0.051811736
-0.07569155 -0.045827754 0.0042859404 0.07415628 -0.03704546 0.0842096 -0.008119735 0.06867598
-0.08025638 0.05376375 0.01372595 0.06480414 0.03683718 0.0702616 0.037131418 -0.06782712
0.057846267 0.028846843 0.049247026 0.0988496 0.16252787 0.054459132 0.06870256 0.054650664
-0.03691137 -0.051275283 -0.07490944 -0.047917362 0.091196805 0.020787038 0.0199639 0.015120158
0.08174026 0.10699477 0.11830738 0.10193909 -0.10187507
00000000: 55c5 f7bb 5508 64bb ad8a bebc 7bc9 64bd
00000010: b460 d33b f256 bb3d 6f80 8bbd 15fc 8f3d
00000020: cdd3 66bd 4748 be3d 3277 163d 1740 af3d
00000030: 81c9 873c 3926 203c f76b 49bd 16a9 4abd
00000040: bb5d 6f3d 1c3f 933d 91a2 b93d 9d1d a6bd
00000050: 948f 0cbd 9464 88bd fae2 36bd 8b38 543d
00000060: 2c04 9bbd e2b5 3bbd 1371 8c3b 3fdf 973d
00000070: fbbc 17bd 1576 ac3d a308 05bc fea5 8c3d
00000080: 755d a4bd 6137 5c3d cfe2 603c 08b8 843d
00000090: 95e2 163d 50e5 8f3d 1d17 183d f2e8 8abd
000000a0: 35f0 6c3d 3750 ec3c 40b7 493d a971 ca3d
000000b0: b56d 263e 8a10 5f3d eeb3 8c3d 60d9 5f3d
000000c0: 6030 17bd 0806 52bd 1f6a 99bd ff44 44bd
000000d0: 64c5 ba3d 9449 aa3c 558b a33c 8aba 773c
000000e0: 7067 a73d 1320 db3d 244b f23d 71c5 d03d
000000f0: e0a3 d0bd
