checkpoint/REINFORCE/reinforce-agent-[1000]-[0.05]-[0.99].pt (torch, 147679 bytes, 4 tensors)

weight f4 [120, 240]
00000000: f158 aabe d521 7abe 1de9 afbe ed24 84be
00000010: cdd9 acbe 9579 aebe 9323 adbe 84b2 95be
00000020: 160a 8bbe d3b3 7ebe b4f0 f03c 1312 9dbe
00000030: 6ffd 9bbe 027c d2bc 1c5b 8dbe 0d81 85be
00000040: 4a2b 37bd 6011 8bbe ca30 8fbe 5044 8dbe
00000050: 95ea 7dbe 08c8 81be 9e7f 87be 8bc4 a6be
00000060: 04fa 95bc 84e1 84be 5f91 b2be 8a5e 96be
00000070: a0c7 593b 3983 b3be 3d7c 84be d1cb 87be
00000080: c4a1 913c 7bf1 b9be 51ba b4be b5df 8cbe
00000090: 582e b8bb 731b adbe 6c6f 85be db01 7fbe
000000a0: 0614 83be b59a a4be 3921 89be eb63 823d
000000b0: 2b23 7cbe aa97 8fbe d5ab 9dbe 1aa0 8bbe
000000c0: 4bd6 b6be 9561 82be 09fe 97be 15df b6be
000000d0: b1aa 74be 2ccf 8fbe 7311 9bbe d6c6 b2bc
000000e0: ebd1 abbe 83ba a6be 1036 d53b 4de9 9bbe
000000f0: 44c9 873c 30ab ad3c f0e2 dd3c f05a cf3b
00000100: 52c1 32bd 00f4 19bb 0651 bcbc 6e18 12bd
00000110: baa5 a5bc 8a99 21bd d3b3 8bbe 546b 6bbc
00000120: 241d 203d 57a3 b2be 3026 223c 62bd 153d
00000130: ab08 adbe c205 2cbd 00ef f03b 2839 72bd
00000140: bc88 a23c 4eb9 7cbd 6022 f33b c42c 56bc
00000150: 5f92 9fbe 545b 4abd 5c08 853c 805f a73a
00000160: 15f4 73be 98e3 1b3d 14f9 ca3c e26f 583d
00000170: 8b0f a9be 127f d9bc c012 2abc 4e46 5a3d
00000180: b7e6 a0be 742b 3bbd 40fb fcbc b466 5abc
00000190: a86f 88bb 6006 143c 9607 9abc d912 7ebe
000001a0: 00ba fe3c 6e49 243d 68b1 913c bbb1 4abd
000001b0: 922a 3bbd 5a64 363d 5cb2 32bc f6ce 7f3d
000001c0: 2cc0 a33c 02a5 75bd 4246 37bd 3d5f 8cbe
000001d0: 9157 80bd 20d2 d83b 81c1 acbe 08da 88bb
000001e0: 24f1 31bd 33c9 72bd 4031 3f3c 3af5 11bd
000001f0: 60e0 33bd c0c4 c43b d450 81bc 30be ca3c
00000200: 38ce b0bc 5eda 43bd c013 a53b 395a 6ebd
00000210: 4c85 4a3d 2ab5 c6bc e0e5 14bc de77 83bc
00000220: 40f6 253d b09e 603c 00ff 0b3b e8d2 5bbd
00000230: 068d 2cbd 5b17 32bd 6c37 5b3d da4b 9fbc
00000240: 4081 d3ba 4047 d3ba d03e 833b 0849 463c
00000250: e057 1d3d b65a 653d 34a8 9c3c b4ce 9ebc
00000260: fa2c 643d 0870 c0bb 0048 26b8 8ce0 753d
00000270: 60d3 dc3c 2095 82bb 4063 e23c 78d3 f6bb
00000280: 58aa 933c c836 e33c 4ea7 97bc 2642 5b3d
00000290: 3aa7 bfbc f22c b1bc 5855 563c 50d1 e2bc
000002a0: d2ec 7bbd a0c5 5d3b 380a 53bc 1c69 1fbc
000002b0: 4bdd 5bbd 1aa1 163d 90ca cabc 8083 04bd
000002c0: 081d 50bd e090 5cbc 486c f83c fcbd 4e3d
000002d0: 0266 6bbd 3832 b83c dc2a b43c 7c8a 85bc
000002e0: ea88 5d3d 2cc7 90be a0a2 c53c 5ef2 cfbc
000002f0: a056 d7bb 80ec f83b 867a acbc 2c5e 58bd
00000300: 3697 513d d093 31bb 74e0 933c 5876 c0bb
00000310: 0aa0 5e3d 90d6 ca3b 242a b63c 587e 683d
00000320: 00de 203b f0f5 023c c20f 433d 607f ecbb
00000330: 14e4 283d 88eb 663d f64a e4bc cc43 4ebc
00000340: f0b2 5f3d 4c62 cc3c a4dd 0cbd 307e 89bc
00000350: 6887 dd3c 80cc 5e3c b010 41bd 8aa3 a5bc
00000360: 6417 773d 50a0 b6bc 0b77 62bd 793e 2ebd
00000370: e26f 7c3d 7a8c 543d 1a3d 4fbd 92fc 0fbd
00000380: 60e8 1c3b 92bf 1e3d 165e 593d aceb 143d
00000390: e547 3bbd 0833 14bc 81a9 5ebd 0058 d1bc
000003a0: 406a c53c f0b1 7b3c e429 863c 441e f23c
000003b0: e0bc a23c 5841 063d 88a6 09bd 408d 86bc
000003c0: f4f9 b0be f87c a1be f101 84be 42ce b0be
000003d0: 2715 adbe 8243 80be a00f 75be 79a8 a5be
000003e0: d205 9fbe 984e a2be 18e4 36bd 61b2 91be
000003f0: d9e8 84be 4048 bcba 8206 8bbe 8e6b 8abe
-0.33270982 -0.24426968 -0.3435754 -0.25809422 -0.3375992 -0.34077135 -0.33816203 -0.2923776
-0.27156132 -0.24873285 0.029411651 -0.30677852 -0.30466792 -0.025693897 -0.27608573 -0.2607502
-0.044719018 -0.27161694 -0.2796691 -0.2759118 -0.24796517 -0.25347924 -0.26464552 -0.32571825
-0.018307693 -0.25953305 -0.34876534 -0.29369003 0.0033230558 -0.35061052 -0.25876036 -0.26522687
0.017777331 -0.36317047 -0.35298398 -0.27514425 -0.005620759 -0.33810005 -0.2606157 -0.24903052
-0.25601214 -0.32149282 -0.2678316 0.06366714 -0.2462279 -0.28045398 -0.3079516 -0.27270585
-0.35710368 -0.25465074 -0.29686 -0.35717073 -0.23893239 -0.28087747 -0.3028675 -0.021823328
-0.33558592 -0.32564172 0.006506689 -0.30451432 0.016575463 0.021199793 0.027085751 0.0063279793
-0.043641396 -0.0023491383 -0.022987854 -0.03566783 -0.020220626 -0.039453067 -0.27285632 -0.014368851
0.03909029 -0.34890243 0.0098968 0.036557563 -0.33795676 -0.04199768 0.00735271 -0.05913654
0.01984059 -0.061700158 0.0074198693 -0.013072196 -0.3116636 -0.049403504 0.016239338 0.001276955
-0.23823579 0.038058847 0.024776973 0.052841075 -0.3301967 -0.02654985 -0.010380447 0.053289704
-0.3142602 -0.045695737 -0.030881524 -0.01333015 -0.004163701 0.009034723 -0.018802445 -0.24811877
0.031094551 0.04010909 0.01778479 -0.049485903 -0.045694895 0.044529296 -0.010906782 0.062453233
0.019989096 -0.059971817 -0.044744737 -0.2741641 -0.06266702 0.0066168457 -0.33741382 -0.004176382
-0.04344286 -0.05927391 0.011669457 -0.035634257 -0.043915153 0.0060048997 -0.015785612 0.024748892
-0.021582708 -0.047815673 0.005037755 -0.05819151 0.049443528 -0.024256308 -0.00908801 -0.016048368
0.040518045 0.013709709 0.0021361709 -0.053667933 -0.042126678 -0.043479305 0.05351965 -0.019445349
-0.0016136542 -0.0016119257 0.0040052906 0.012102373 0.038413882 0.05599471 0.019123174 -0.019385673
0.055706955 -0.00587273 -3.964454e-05 0.060028598 0.02695626 -0.0039850622 0.027635217 -0.0075325333
0.018025562 0.027736083 -0.018512394 0.05352988 -0.02339517 -0.021627877 0.013081871 -0.027687699
-0.061505146 0.0033839718 -0.012880854 -0.00972965 -0.05367784 0.036774732 -0.024754792 -0.03235197
-0.050808936 -0.013462275 0.03032507 0.050474152 -0.05747033 0.022484884 0.021993093 -0.016301386
0.05408565 -0.28276956 0.024125397 -0.025384124 -0.006571606 0.0075965524 -0.021054517 -0.052824184
0.051169597 -0.002709616 0.018051364 -0.0058734827 0.054351844 0.0061901286 0.022236891 0.056761116
0.0024546385 0.007993206 0.04762245 -0.0072173327 0.041233137 0.056376964 -0.027867775 -0.012589406
0.054614007 0.024949215 -0.03439106 -0.016783804 0.027042106 0.013598561 -0.047135055 -0.020219583
0.06032504 -0.02229324 -0.05528931 -0.042540047 0.061630137 0.05189178 -0.05059538 -0.03515298
0.0023942217 0.038756914 0.053068243 0.036357567 -0.04572286 -0.00904537 -0.05436087 -0.025554657
0.024098516 0.015362248 0.016377397 0.029555447 0.019865453 0.03277716 -0.033606082 -0.016424775
-0.345657 -0.31540656 -0.2578273 -0.34532362 -0.338052 -0.25051504 -0.23931742 -0.32355097
-0.31059128 -0.31700587 -0.04465112 -0.28456405 -0.259589 -0.0014364794 -0.27153403 -0.27035183

bias f4 [120]
00000000: a1fc a6be 79b8 81be 57c0 6bbe 8a15 80be
00000010: b86d 5dbc f903 b7be 60be 81be ce2d d6bc
00000020: 5599 8cbe eb38 7fbe 50c9 9abe 0232 80be
00000030: 50cf 2dbe 455e 5ebe d4ed 8fbe f88f 5ebe
00000040: 250b 7ebe d3a6 00be de5d 86be f42b adbe
00000050: a4ee 35be 5839 75be 7ee5 a7be 34b4 97be
00000060: a664 a8be ea84 a7be 0f17 87be aa72 afbe
00000070: 2d32 72be 2548 14bf b04d ddbb 2b97 ebbe
00000080: 6d98 b6be 0326 adbe e4f0 13be eac8 40be
00000090: 262f 89be 44d7 18be 51e7 16bf 7547 7dbe
000000a0: 788b 71be 867f 4fbe 0699 35be 5635 80be
000000b0: 5a73 81be f674 89be 2261 5bbe e5d2 4dbe
000000c0: 31f7 9cbe 50fe 76be cfb2 9abe fdbc c2be
000000d0: 8d8b abbe 1969 0fbf 3e30 66bd 6b5d aabe
000000e0: 970f a1be b761 c5be 133c 62be 50a8 8fbe
000000f0: a526 05bf 64ad 46be 26c0 90be ce4a 99be
00000100: 2b4e b2be 5802 00bf 4ab4 aabe 65bc 6fbe
00000110: 281c 92be ae88 73be 1894 67be 5039 57bd
00000120: 146a 4d3d b3a4 a7be fc9f 8ebe 368b 76be
00000130: 22b5 8fbe 5f74 7abe 363e 6cbe fae7 6abe
00000140: 6ab9 03bf fd57 96be 3a73 81be d9df a0be
00000150: 71e2 b9be 3b0d 84be c938 4abe 35d1 82be
00000160: 6b0d 63be 30e9 903c 948e 4fbe 508e 103d
00000170: bfbc 06be efd2 85be 8a40 5bbe 0699 6ebe
00000180: 24fa 56bf 71fa b9be d2c6 6bbe 3a40 90be
00000190: 5938 a0be ddec 97be 7fb9 8bbe 6422 82be
000001a0: d4b6 77be 0a1d 8fbe 60fc c93c bbcc 5bbe
000001b0: e2a1 50bd 2a45 17be 7c45 7abe 82c6 733f
000001c0: 9124 1abe 0049 25be d4d7 96be 42d6 91be
000001d0: 5bc2 f1bd 3f47 8abe 7fb8 01bf 0eb4 a0be
-0.32614616 -0.25336054 -0.2302259 -0.25016433 -0.0135149285 -0.35745218 -0.25340557 -0.026144888
-0.27460733 -0.24924056 -0.30231714 -0.25038153 -0.16973615 -0.21715648 -0.28111136 -0.21734607
-0.24808939 -0.12563638 -0.2624349 -0.33822596 -0.17766815 -0.23947656 -0.32792276 -0.29629672
-0.3288929 -0.32718593 -0.2638478 -0.3426717 -0.23651953 -0.57922584 -0.006753646 -0.4601377
-0.35663167 -0.33818063 -0.14447361 -0.18826643 -0.26793784 -0.14925867 -0.5894671 -0.2473429
-0.2358836 -0.2026349 -0.17734155 -0.25040692 -0.2528332 -0.26847047 -0.21423772 -0.20099981
-0.30657342 -0.2412045 -0.30214545 -0.38034812 -0.33504906 -0.5601974 -0.05619835 -0.33274397
-0.31457207 -0.38551113 -0.22093229 -0.280581 -0.5201209 -0.19402081 -0.28271598 -0.29939884
-0.34825262 -0.50003576 -0.33340675 -0.2341171 -0.28537107 -0.23782608 -0.22615087 -0.05254489
0.050149992 -0.32742843 -0.27856433 -0.24076542 -0.2806788 -0.24458455 -0.23070607 -0.22940055
-0.51454794 -0.29364005 -0.25283223 -0.31420782 -0.36305574 -0.25791344 -0.19748224 -0.25550237
-0.22173087 0.017689317 -0.20269233 0.03529197 -0.13157938 -0.26137492 -0.21411338 -0.23300561
-0.83975434 -0.36323884 -0.23025063 -0.28174 -0.3129299 -0.296729 -0.2728996 -0.25416863
-0.24190837 -0.27951843 0.024656475 -0.21464817 -0.050935633 -0.14772478 -0.24440569 0.95224774
-0.15053011 -0.16141129 -0.2946154 -0.28483778 -0.118046485 -0.2700748 -0.50672144 -0.3138737

weight f4 [61, 120]
00000000: 80d8 bbbe 1e4f 92be f4ab 91be acfe 33be
00000010: aa4e 923d 69e2 a5be 5144 bfbe 847e 1a3d
00000020: 9347 97be e28a 32be 653b b4be 2834 debe
00000030: 7ff0 dabe cdcd c0be 5d73 b2be d012 24bf
00000040: e1af 65be 66e1 06bf 568c 9dbe 1b9b 97be
00000050: 9bdd e6be 872a dfbe 93b7 2fbf 2b0b 83be
00000060: 82f1 94be 278e 34bf 7ed3 47be a365 45bf
00000070: 57f3 e2be 65ea 0c3f fabd a33d 84c5 a5bf
00000080: 7667 c6be 58fe 93bf a1a2 bebe 9bd3 b1be
00000090: 5044 33bf 7e33 56bf 5ad9 2a3f 8cf6 8fbe
000000a0: 7c41 c6be cc20 a5be 550e 77be fe53 b0be
000000b0: d645 c3be 5df0 c6be fd79 89be 5534 b9be
000000c0: 83e3 a7be e4db 9cbf c8a7 adbe b2d8 49bd
000000d0: 0159 57bf 75e3 f2be ad73 40bd 72ee 87be
000000e0: 1b68 89be 42e7 babe 5c7d a8be a3fe 73be
000000f0: 4049 fabe 0802 d0be 6b78 89be db01 c6be
00000100: 72bd 83be 72b4 febe 78ee 8bbe 82f8 a5be
00000110: e032 88be 8e77 bcbe da69 3ebe 5a85 7fbd
00000120: 0abc 973d 7be3 c7be 4474 91be 7f90 b0be
00000130: 6719 85be 03d8 b9be ed8e 14bf 1e0b 93be
00000140: dc07 08bf 120e 11bf 81a0 9dbe 202d 82be
00000150: 4a60 a6bf 95ac a7be f735 42be ec3a c8be
00000160: 7e9b 3ebf 00b2 933a a1d5 00bf 507d a3bc
00000170: 74e6 17bf 66c5 dabe d562 92be d175 03bf
00000180: 6879 b33e bc3c c0be abbd cdbe 64ab a5be
00000190: cd6d a8be e575 cfbe 50d9 a6be 6d97 37bf
000001a0: bbe8 c3be 89b9 c7be 3041 8b3d 1a08 8ebe
000001b0: 7a77 8f3d 0898 ecbe 71bb cfbe c91c bf3f
000001c0: acf8 d9be 8633 e0be a705 6bbe 1b34 64be
000001d0: d162 3ebf c3da a5be c842 07bf e4e8 8fbe
000001e0: 4245 98be 15d4 8dbe da0f 5ebe ba62 0fbe
000001f0: 3a11 4bbd 4070 a6be 4378 aabe 68b5 f43c
00000200: f0de b4be 315c 50bc 8e20 9cbe 1335 cabe
00000210: f1b7 d5be 8a0c f6be 0bb0 3d3e 8f8f d8bd
00000220: e442 a0be bc93 00bf a3a4 95be 793b a7be
00000230: 27e7 0cbf 0f90 a2be 6d53 11bf eeff 8ebe
00000240: e8d2 78be 3710 44bf 141f 47be 686b 2abf
00000250: 2880 ecbe ae41 123f f098 54bc 0155 a7bf
00000260: 62b7 aabe fc90 3ebf 7d70 9fbe b3a4 b0be
00000270: 403e 2abf f32d 84bd b76f d83e 2e54 b3be
00000280: 5a85 96be b2ec b1be 6f59 93be 2b8a 4bbe
00000290: 9f61 91be 9688 cebe 0784 9cbe abee eabe
000002a0: a22a 9fbe fcc5 a9bf 1bbd 5ebe 351f 98bf
000002b0: 2222 f4be 917c dabe c052 643c 4cd6 a9be
000002c0: 6921 56be 39e7 b8be 1af6 d3be 1d85 56be
000002d0: 0527 0dbf ab47 b2be 10a3 aebe f605 83be
000002e0: 2f48 94be 4e2d 05bf d373 52bd 07d9 c9be
000002f0: 7e99 77be b72f 7cbe 5be1 9fbe 867f 973d
00000300: 9076 a93b 2a5e b5be 314b c5be 99ca 94be
00000310: 11dc 843e f6bf 92be 3afb 0fbf 346d dfbd
00000320: 21cc 07bf a5eb f4be 1d0e 4dbe 39f2 b1be
00000330: 535b afbf 3eae e0be c060 4cbe e52d c3be
00000340: 1bbc 16bf 864c 043d 596c cdbe d7c0 b1bd
00000350: b6a6 16bf 90b4 a6be 270f b6be 3d42 d3be
00000360: f0de b5be 0f03 9fbe d89a b4be b1ee 8fbe
00000370: 00a1 75be 9367 b9be 6951 bbbe fe6e 3fbf
00000380: 36ae 66be 170c 8dbe c06b e2bc f6e3 a9be
00000390: 2718 6bbd e8e6 f8be 62db 01bf 8051 0d3f
000003a0: a3f1 a1be 8ea0 74be ca0d 5bbe 2d25 7bbe
000003b0: f755 603d 1a3f c0be 05f3 c8be 0c8e 66be
000003c0: 2784 c6be ba66 b5be 11fc 5cbe 69f1 bf3c
000003d0: 17e2 b7bd d676 babe 7c42 b6be 2cc3 433d
000003e0: 5e6d b9be 1ad0 56bd 77ce 6fbe d880 f6be
000003f0: 83ff 76be 5f0a bebe 8ebb 8dbe 6eb3 2fbf
-0.36688614 -0.28575987 -0.28451502 -0.17577618 0.0714391 -0.323993 -0.3735681 0.03771831
-0.29546794 -0.17435792 -0.35201564 -0.43399167 -0.4276161 -0.37657014 -0.3485364 -0.64091206
-0.22430374 -0.5268768 -0.3077113 -0.29610524 -0.45090947 -0.43587133 -0.6863949 -0.25594458
-0.29090506 -0.7052941 -0.19514272 -0.7710821 -0.4432628 0.5504516 0.079952195 -1.2950902
-0.3875081 -1.1561995 -0.3723345 -0.34731755 -0.7002611 -0.8367232 0.667379 -0.28117788
-0.38721836 -0.32251585 -0.24126561 -0.3443908 -0.38139218 -0.38855258 -0.26850882 -0.3617274
-0.32790765 -1.2254605 -0.3391707 -0.049278922 -0.84120184 -0.4743916 -0.046985317 -0.26549107
-0.2683724 -0.3650456 -0.32908142 -0.23827605 -0.4888401 -0.4062655 -0.26849684 -0.3867329
-0.25730473 -0.49747044 -0.27330375 -0.3241616 -0.26601315 -0.36809963 -0.18595067 -0.062383033
0.074089125 -0.3904074 -0.28409016 -0.34485242 -0.25995943 -0.36297616 -0.5803059 -0.2871942
-0.5313699 -0.56662095 -0.30786517 -0.25425053 -1.2998135 -0.32748857 -0.18965898 -0.39107454
-0.7445601 0.0011268258 -0.5032597 -0.019957215 -0.5933602 -0.42728728 -0.28591028 -0.5135165
0.35053563 -0.37546337 -0.40183768 -0.32357323 -0.3289627 -0.40519634 -0.3258767 -0.7171543
-0.38263497 -0.3900874 0.06799543 -0.27740556 0.0700521 -0.4620974 -0.40572694 1.493066
-0.42572534 -0.4378931 -0.22951375 -0.22285502 -0.7436953 -0.32393464 -0.52836275 -0.2810737
-0.2974034 -0.27700868 -0.21685734 -0.14002505 -0.049576975 -0.32507515 -0.33294877 0.029871657
-0.35326338 -0.012717293 -0.30493587 -0.39493617 -0.417419 -0.48056442 0.18524186 -0.10574257
-0.31301033 -0.50225425 -0.2922717 -0.32662562 -0.5504021 -0.31750533 -0.5676792 -0.27929634
-0.24299204 -0.7658724 -0.19445449 -0.6657014 -0.46191525 0.5713147 -0.012975916 -1.3072816
-0.33343035 -0.7443998 -0.3114051 -0.34500656 -0.66501236 -0.064540766 0.42272732 -0.35025162
-0.29398614 -0.34750897 -0.2877917 -0.19876926 -0.2839479 -0.40338582 -0.3056948 -0.45885214
-0.31087214 -1.3263545 -0.21751826 -1.1884524 -0.4768229 -0.42673162 0.013935745 -0.33171308
-0.20911182 -0.3611391 -0.41398698 -0.20949216 -0.55137664 -0.34820303 -0.34108782 -0.25590485
-0.28961322 -0.52022254 -0.05137999 -0.3942339 -0.24179646 -0.24627577 -0.3122662 0.0739737
0.0051716045 -0.35423404 -0.3853393 -0.2906082 0.25949147 -0.2866208 -0.56242716 -0.10909501
-0.5304585 -0.47836033 -0.20024915 -0.34755114 -1.3699745 -0.43882936 -0.19958782 -0.38120952
-0.58880776 0.03229954 -0.40121725 -0.086793594 -0.5884813 -0.32559633 -0.35558435 -0.41261473
-0.3552165 -0.3105702 -0.35274386 -0.28111795 -0.23987198 -0.36211833 -0.3658555 -0.74778736
-0.22527394 -0.27548286 -0.02763927 -0.33181733 -0.05739608 -0.48613667 -0.50725377 0.55202484
-0.31629667 -0.23889372 -0.21391979 -0.245259 0.054769482 -0.37548143 -0.3924791 -0.22515124
-0.387727 -0.35429937 -0.2158053 0.023430543 -0.0897867 -0.3641879 -0.355976 0.047793552
-0.36216253 -0.052444555 -0.23418604 -0.48145175 -0.24120907 -0.37117288 -0.27682155 -0.6863316

bias f4 [61]
00000000: b0e9 37bf e4c0 a2bf 7d16 35bf fceb 5bc0
00000010: 843a babf c87a f5bf 3753 e9bf 9639 2ec0
00000020: 77d6 c9be 5c8a 23bf 612f 05bf 1155 3c3d
00000030: b953 bbbf 9039 21c0 d433 16c0 5963 59bf
00000040: 14fe dd3c 9d9e 03c0 6a53 00c0 606d cebe
00000050: 2894 04c0 5296 24c0 22e6 b6bf d43b f7be
00000060: cc7a 03bf 4729 0ec0 cef2 05bf 7e55 d8bf
00000070: 9856 7bbe d32a 1cc0 e16b 24bf 538a 1fbf
00000080: 5386 89bf c223 bfbf c78f a0bf 966a 95bf
00000090: c0cf 76be 60f5 06c0 614f cdbf 24ab 33c0
000000a0: 1979 e3bf 3fbd 21c0 2311 09c0 eab9 3bc0
000000b0: e7eb 27c0 f578 23c0 f7e4 84bf 76f3 81bf
000000c0: 6106 24bf 3077 d6bf 10e6 87bf 3167 21c0
000000d0: a542 67c0 f50f 59bf 588d 1cc0 e371 81be
000000e0: 2bbe 1ac0 890b 86bf b784 28c0 24d0 0bc0
000000f0: 2a5c 873e
-0.71840954 -1.2715116 -0.7073744 -3.4362783 -1.4549108 -1.9178095 -1.822852 -2.7222648
-0.39421436 -0.63882995 -0.5202542 0.045979563 -1.4634925 -2.5191383 -2.3469133 -0.8491722
0.027098693 -2.056556 -2.0050912 -0.40317822 -2.0715427 -2.5716748 -1.4288981 -0.48287833
-0.5135925 -2.2212694 -0.52323616 -1.690109 -0.24544752 -2.4401138 -0.6422711 -0.6232044
-1.0744117 -1.4932787 -1.2543877 -1.1673152 -0.24102688 -2.1087265 -1.603985 -2.8073206
-1.7771331 -2.5271757 -2.141671 -2.9332223 -2.6237733 -2.5542576 -1.0382375 -1.0152423
-0.64072233 -1.6755123 -1.0617085 -2.5219233 -3.6134427 -0.84789973 -2.446127 -0.252822
-2.417857 -1.047227 -2.6331003 -2.184579 0.26437503
