checkpoint/REINFORCE/reinforce-agent-[50000]-[0.05]-[0.99].pt (torch, 147679 bytes, 4 tensors)

weight f4 [120, 240]
000000 c2 b9 ea bc 74 c6 aa 3c 90 ad 66 3c 4c 3c e8 bc
       -0.02865303 0.020846583 0.014079466 -0.028349064
000010 89 19 81 3d bc a2 51 bd 36 d8 a9 bc fc fc 5d 3d
       0.063036986 -0.051180586 -0.02073298 0.054196343
000020 40 94 60 3c 19 40 59 bd 32 44 f6 bc 08 15 28 bc
       0.013707221 -0.053039644 -0.030061815 -0.0102589205
000030 10 52 28 bd 68 b3 27 bd f6 ae 0c bd c4 da 7a bd
       -0.041093886 -0.04094258 -0.034346543 -0.061243787
000040 76 f2 78 3d 80 f6 0c 3c 5e b2 1e bd 14 5a 85 3c
       0.060778104 0.008603692 -0.038744323 0.016278304
000050 74 20 8d 3c 88 32 6a bd 4c ae 0f 3d 66 ec 20 3d
       0.017227389 -0.057177097 0.03507833 0.039287947
000060 dc 76 2f bc b5 c4 83 bd de a9 40 bd 00 57 b3 39
       -0.010709491 -0.06434003 -0.047036998 0.0003420636
000070 0c e4 24 bd 60 3d 65 3d 0c 3d 39 3d 9a 67 18 bd
       -0.040256545 0.055966735 0.045224234 -0.037208177
000080 48 71 35 3c 38 5e c3 bb d8 d9 55 bd 0c 01 b1 bc
       0.011074372 -0.0059621595 -0.052209705 -0.021606945
000090 1a e5 c8 bc 10 a3 cb 3c 00 7b ba ba 85 2d 49 bd
       -0.024523307 0.024858028 -0.0014227331 -0.049115676
0000a0 d2 a9 e9 bc 12 62 17 bd 09 7c 3b bd 60 9b 24 3b
       -0.02852336 -0.03695876 -0.045772586 0.0025117025
0000b0 a8 67 6f 3d 38 95 58 bd 3c bc 10 bd 4c 72 9b 3c
       0.058448464 -0.05287668 -0.035335764 0.0189754
0000c0 b2 eb 7e 3d 34 24 ed 3c 04 12 41 3d 40 9d 63 bd
       0.062236495 0.028947927 0.04713632 -0.055569887
0000d0 e0 2b 35 3c 64 0d 6f 3d 14 cd c2 bc cc 5a 65 bd
       0.011057824 0.05836238 -0.02377943 -0.055994794
0000e0 e0 07 56 bb 68 26 9e 3c be 23 3e bd a8 5e 5f 3d
       -0.0032658502 0.019305423 -0.046420805 0.05453363
0000f0 b7 ab 15 bd f7 7c 81 3d c5 d0 14 bd 62 f4 d7 bc
       -0.036540713 0.06322663 -0.03633191 -0.026361648
000100 62 75 1b 3d b0 35 69 3c 89 16 7a bd 04 c8 41 bd
       0.03795374 0.0142339915 -0.061056647 -0.04730989
000110 c0 c5 4f 3c 1c c5 c5 bc c8 5d fb 3c 24 d4 89 3c
       0.012681425 -0.02414184 0.030684367 0.01682479
000120 c5 d4 81 bd e8 86 6a bd e0 b1 50 3d f8 59 ed 3c
       -0.06339411 -0.057257563 0.050950885 0.028973565
000130 e2 fd 31 3d a6 42 b9 bc d2 5c 36 bd 38 2e 24 3c
       0.043455012 -0.022614788 -0.044522114 0.010020785
000140 f4 19 94 bc f0 c3 6a bd 94 02 64 bd 50 d4 cb 3c
       -0.018078782 -0.057315767 -0.05566652 0.024881512
000150 28 af c5 bc d4 64 47 bd f4 9e 4e bc 68 9d 87 bc
       -0.024131373 -0.04868014 -0.01261114 -0.01655455
000160 18 e5 5e 3c 51 19 81 3d 10 b6 59 bd 28 33 09 3d
       0.013604425 0.06303657 -0.053152144 0.033496052
000170 64 99 24 bd e8 37 fc bc b4 94 d6 3c c0 7c 67 bc
       -0.040185347 -0.030788377 0.026193954 -0.014128864
000180 ae f6 9a bc d0 e4 57 3c 9a ec 17 bd b6 9b eb bc
       -0.018916454 0.013177112 -0.037090875 -0.028760772
000190 2c 99 8e bc d2 5c 7d bd 68 ad 44 bd 96 3e 43 3d
       -0.017407022 -0.0618561 -0.048016936 0.04766711
0001a0 66 b5 2b bd f8 3d 59 bc 94 c4 33 3d bd b6 83 3d
       -0.041921042 -0.013259403 0.043888643 0.06431339
0001b0 90 74 17 bd 5e 0d 39 3d 54 c1 39 bd ae e7 cb bc
       -0.036976397 0.045178764 -0.045350388 -0.024890747
0001c0 f4 b0 20 bc dc 8d 70 bc 6a 1c 0a 3d d0 9a ae bc
       -0.009807814 -0.014682259 0.033718504 -0.021314055
0001d0 70 d0 13 3c 00 0e b6 ba 70 08 9d 3c 74 a3 46 bd
       0.009021863 -0.001388967 0.019169062 -0.048495725
0001e0 a8 10 8e bc f6 d9 d6 bc 91 f1 60 bd 50 dc 60 3d
       -0.017341927 -0.026226979 -0.054917876 0.054897606
0001f0 c0 64 9a bc ec 6a 85 bc 0d de 31 bd 12 a0 1f 3d
       -0.01884687 -0.016286336 -0.043424655 0.038971014
000200 9c bc 12 3d 6d fb 30 bd 7e 2b 33 bd 68 df 9a bc
       0.035824403 -0.04320853 -0.04374265 -0.018905357
000210 d6 6c 4b 3d 30 c8 5c bc b8 94 b0 3c 33 35 7c bd
       0.04966434 -0.013475463 0.02155529 -0.061574172
000220 18 bd ca 3c 7a 1f 01 3d 7c a0 c2 3c d8 e6 ad bc
       0.02474837 0.03152416 0.023758166 -0.021228239
000230 7c 82 d7 3c b8 5c 74 bc 2e 90 a3 bc 9b 05 72 bd
       0.026307337 -0.014914684 -0.019966211 -0.059087377
000240 f0 57 43 3c 30 c8 4c bb e0 35 bf bb 80 af c3 3b
       0.011922821 -0.003124725 -0.00583528 0.005971849
000250 06 50 42 bd c6 ff 37 3d d6 a6 50 bd f6 66 25 bd
       -0.047439598 0.04492166 -0.050940357 -0.040381394
000260 56 84 33 bd 9d 4d 2d bd ea a6 1d bd 0a e6 16 3d
       -0.043827377 -0.042310346 -0.03848926 0.036840476
000270 00 5a 7e bb 28 ba 23 3d de c8 7e 3d dc cd d9 3c
       -0.0038810968 0.039972454 0.06220328 0.02658742
000280 68 25 1f 3c 6a 27 59 3d 1a 66 3b 3d 93 19 6c bd
       0.009713508 0.053016104 0.04575167 -0.057641577
000290 92 f3 05 3d 48 5b e9 bb 36 8f 51 bd b0 0a c1 bc
       0.03270299 -0.0071214773 -0.051161967 -0.023564667
0002a0 f6 bf 43 bd a0 48 5f 3b 8c 20 79 bc 0a 6f 79 3d
       -0.04779049 0.0034070387 -0.015205514 0.06089691
0002b0 70 fd e2 3b 78 ac 2f bc 58 9a c8 3c e0 59 ae bb
       0.0069271848 -0.010722272 0.02448766 -0.0053207725
0002c0 f8 10 a4 bc d4 7a 35 3d 7a 25 2e bd 0d 08 06 bd
       -0.020027623 0.04430659 -0.04251621 -0.03272252
0002d0 0c 8f 2b bc 0c 6e bb 3c 40 29 11 3d 8e af 1c 3d
       -0.010471117 0.022879623 0.03543973 0.03825336
0002e0 94 c7 18 bd b5 64 4a bd 4e b9 c8 bc 50 bb 43 bd
       -0.037299708 -0.049412448 -0.024502423 -0.047786057
0002f0 3c d0 50 3d b8 0f 24 3c 90 46 8a 3b eb 5d 81 bd
       0.050979838 0.010013513 0.0042198375 -0.063167416
000300 22 55 23 bd 08 8a fb 3c d8 4b 44 bd 9c a3 cc 3c
       -0.03987611 0.030705467 -0.047923893 0.024980359
000310 ec 47 43 3d a0 7d 9d 3c 98 b2 0b 3c 08 d4 48 bd
       0.047676012 0.019224942 0.008526467 -0.049030334
000320 84 56 3f 3d c0 72 f6 ba f8 88 5e 3c 00 13 7f 3b
       0.046713367 -0.0018802509 0.013582461 0.0038921237
000330 80 c0 ec 3c 10 f6 ac 3b a0 02 6b 3d 40 00 02 3d
       0.028900385 0.0052783564 0.05737555 0.03173852
000340 83 12 58 bd f2 d1 8e bc c2 ed 07 3d 64 08 7e bc
       -0.05275203 -0.017434094 0.033185728 -0.01550493
000350 00 52 98 39 4c 85 39 bc 30 0d 3d bb e8 c0 7e bc
       0.00029052794 -0.011323284 -0.0028846972 -0.015548922
000360 4c 3e 65 3d ec 66 90 3c 70 57 71 3c 2a a3 14 bd
       0.055967614 0.017627202 0.014730319 -0.036288418
000370 bc 42 51 3d d7 62 81 bd e8 c4 9d bc bc 12 ea 3c
       0.051089033 -0.0631768 -0.019258931 0.028573386
000380 c0 48 24 3c 18 6f bc bb c0 a7 33 3b 32 bd 61 bd
       0.010027111 -0.005750548 0.002741322 -0.05511207
000390 c6 44 36 bd 96 65 79 3d 12 71 45 3d 40 d1 a9 bc
       -0.04449918 0.060887896 0.048203535 -0.020729661
0003a0 94 34 5f 3d 98 78 9f 3c b0 37 f7 3b 00 94 39 bd
       0.0544935 0.019466683 0.0075444803 -0.04530716
0003b0 18 c3 79 3c b8 4c c4 bb 6c 35 fa 3c dc da 41 bd
       0.015244268 -0.005990591 0.030543052 -0.04732786
0003c0 55 9a c9 3e 11 1e 94 3e 91 92 92 3e 94 98 d0 3e
       0.39375558 0.2892919 0.28627446 0.40741408
0003d0 e1 17 80 3e 69 6b d3 3e e2 ef c8 3e 1f b4 9a 3e
       0.25018218 0.41292885 0.39245516 0.30215546
0003e0 19 63 9d 3e f9 8b 8c 3e 11 39 9c 3e 0c 35 94 3e
       0.30739668 0.2745054 0.30512288 0.28946722
0003f0 a2 a5 95 3e 23 e1 99 3e 46 36 d2 3e 34 4d 98 3e
       0.2922793 0.30054578 0.41057032 0.297464

bias f4 [120]
000000 3d 81 63 bd 4c 77 ae 3e 88 8a 20 3d 70 34 6c bd
       -0.055543173 0.3407539 0.039194614 -0.057667196
000010 30 98 99 be 77 b2 8b be 3a c2 6b be e3 3d f7 3e
       -0.29998922 -0.27284595 -0.2302331 0.48289403
000020 36 e9 5c 3d 82 a2 3e 3d 5e 1a c9 bd 4d 1e 91 be
       0.053933345 0.0465417 -0.09819482 -0.2834343
000030 87 e6 85 be 82 5e 65 bd 34 58 e2 3c c3 11 ab be
       -0.2615244 -0.055998333 0.02762995 -0.3341199
000040 24 f0 9d bc 58 c0 5a bc d2 4b e9 bc d4 4d e7 3c
       -0.019279547 -0.013351522 -0.028478537 0.028235354
000050 c6 e3 57 be 78 1e 12 bd 0e ed 61 be ac ed 08 3e
       -0.21082982 -0.03567359 -0.22063085 0.13371915
000060 b7 fb 5b 3f 7c e3 cc 3c cc eb 46 bc 28 c3 83 be
       0.8593096 0.025010817 -0.012141179 -0.2573483
000070 bc f3 95 be db 1a 94 be 80 d7 23 bc 76 4a 46 3d
       -0.29287517 -0.2892674 -0.01000011 0.048410855
000080 c9 64 a4 be f0 bd 82 3b 58 e4 53 bd c0 d5 ef bb
       -0.32108143 0.0039899275 -0.051731437 -0.007319182
000090 4f fa b8 be 15 8b 7e bd 16 e2 92 be 4a c7 70 3f
       -0.3612847 -0.062144358 -0.28688115 0.9405409
0000a0 42 a4 72 be d3 4b 7d be f5 28 05 be b8 35 43 3c
       -0.23695472 -0.24735956 -0.13003905 0.011914663
0000b0 7e df 33 be 21 bd f6 3d 72 e4 8a be f1 e1 8b be
       -0.17565724 0.12047792 -0.27127415 -0.27320817
0000c0 fc 93 1f bd b1 a4 d0 3e 92 9b ef bd c9 7e ac be
       -0.03895949 0.4075065 -0.116995946 -0.3369048
0000d0 47 7f a5 be 4b 55 19 3f d4 5c 21 bc 75 22 b0 be
       -0.32323667 0.5989577 -0.009848792 -0.3440129
0000e0 ff e9 15 3f 97 2a 9b be 7a 1d 05 bd b2 41 b6 3d
       0.58560175 -0.3030593 -0.032498814 0.08899249
0000f0 47 11 89 be be 63 a5 bc d1 be 71 be 1e 79 b3 be
       -0.26770994 -0.020189162 -0.23607947 -0.35053343
000100 36 a4 e4 3e 65 d5 b7 be 5c 02 80 be cd 42 b7 3d
       0.44656533 -0.35904995 -0.250018 0.08948288
000110 f1 72 82 bd fe d8 38 3d e0 68 2d bd 55 fb 82 be
       -0.063695796 0.045128815 -0.042336345 -0.25582376
000120 b9 3d e5 3e d4 eb 3e bd 37 47 7f be e6 d8 80 be
       0.44773653 -0.046611622 -0.2492951 -0.2516548
000130 ac cc 1b 3f 0c a5 6d 3d e9 17 48 3f 3a 68 2c bd
       0.6085918 0.05801873 0.78161484 -0.042091586
000140 7a 5c f5 3e 7a f1 7a 3d 66 b5 98 be a5 e1 f9 3e
       0.47922117 0.061265446 -0.29825896 0.48804966
000150 94 1e 19 bd 7b fb 9d be cf f2 63 bd 21 a3 6a bd
       -0.037382677 -0.30855927 -0.055651482 -0.057284478
000160 2c 6b 45 bd 51 91 3c 3e 17 c6 74 3e be b3 3a bd
       -0.04819791 0.18414809 0.2390369 -0.04558157
000170 17 77 87 be 18 0f 30 bc 23 e9 b3 be a1 77 3b bd
       -0.26458046 -0.010745786 -0.35138807 -0.045768384
000180 cb a8 88 be ad 87 33 ba aa 29 89 be c1 68 09 be
       -0.2669128 -0.00068485254 -0.267896 -0.13418867
000190 b2 9f f6 bc d7 6e 0e be 70 d1 7b bd ff db 42 be
       -0.030105446 -0.1390947 -0.061479032 -0.19029234
0001a0 55 82 a3 be 5a 2d 54 3d bd ad 7d be 77 66 05 bd
       -0.31935373 0.051801063 -0.24773307 -0.03256842
0001b0 29 50 2c 3f 6c 04 a6 bc c1 a7 8a be b1 37 b3 3e
       0.67309815 -0.02026578 -0.2708111 0.35003427
0001c0 0f 94 72 be cc 4a 58 be b5 fe 56 bd 42 b2 ad be
       -0.23689292 -0.21122283 -0.052489 -0.33925062
0001d0 9d 65 6f be d2 44 1e 3d d8 8f 64 bc 61 67 85 be
       -0.23378606 0.03863985 -0.013950311 -0.26055434

weight f4 [61, 120]
000000 f0 da 17 3c 5b d7 28 3f 4c f3 b6 bd b8 a6 f5 3c
       0.009268507 0.65953606 -0.08933124 0.029986724
000010 55 ff 88 bd 96 78 97 3e 34 66 74 3e df d5 06 3e
       -0.06689326 0.29584187 0.23867112 0.13167523
000020 4a e9 00 bd d8 f1 a5 bd fc 30 20 3f 29 6d a5 3e
       -0.03147248 -0.08102769 0.62574744 0.32309845
000030 34 39 e0 bc 83 be 81 bd 1c a1 10 bd 59 30 ad 3e
       -0.027371027 -0.06335165 -0.035309896 0.3382595
000040 10 fa b2 bb 77 3f 0c bd 58 c5 5e 3c ec 60 b8 bd
       -0.0054619387 -0.034240212 0.013596855 -0.090028614
000050 86 ae 1f 3f 05 4d 9f bd b7 80 9c 3e c6 6d 8f bd
       0.62375677 -0.07778362 0.30566952 -0.070033595
000060 32 52 2c 3f 80 b7 b8 3d 70 56 69 bd 51 1d b6 3e
       0.6731292 0.09019375 -0.0569672 0.35569242
000070 6e 3b 8c 3e b4 d0 bc 3e 88 a4 aa bc c6 e4 8d 3d
       0.2738909 0.36877978 -0.020830408 0.06928401
000080 cc 77 8f 3e 70 eb 8e 3d 28 cf 5c bc ac 01 64 bd
       0.28021085 0.069785 -0.013477124 -0.055665657
000090 b3 31 2b 3f b8 5a 54 bd 23 e8 60 3e f1 00 3f 3f
       0.6687271 -0.05184433 0.21963553 0.7461081
0000a0 e2 8e af 3e 78 68 1f 3f 3b 34 2d 3f d8 83 b6 bc
       0.34288698 0.6226878 0.6765782 -0.022279665
0000b0 42 5f 11 3f 10 43 17 3c f0 61 46 3c 0e d6 6f 3e
       0.56785977 0.009232298 0.012108311 0.23421499
0000c0 b8 5b 1e bd 15 f3 3d 3f e5 70 30 3f 7a 8a aa 3e
       -0.03866169 0.7419904 0.68922263 0.33308774
0000d0 d6 70 8d 3e 55 89 26 3f 94 b4 ba 3d 66 21 be 3e
       0.2762515 0.650533 0.09116474 0.37134856
0000e0 b3 5b 37 3f 71 c1 ac 3e 64 98 9c 3e 2d 8c 1d 3f
       0.71624297 0.33741334 0.30585015 0.61542016
0000f0 1a 35 8d 3e cc 10 28 3d 0c 26 87 3e 8e db 7c 3e
       0.27579576 0.041031644 0.26396215 0.24693128
000100 de 65 21 3f ff 22 ba 3e 0d 23 77 3e f1 d7 02 3f
       0.6304606 0.36354825 0.24134465 0.5111075
000110 b0 ce 92 3d c4 0a db 3c a0 7e 73 bd 34 f9 a7 3e
       0.07168329 0.026738532 -0.05944693 0.32807314
000120 a0 38 2e 3f 50 20 ab 3b 84 30 80 3e 1a 83 c5 3e
       0.6805515 0.005222358 0.25037014 0.38576585
000130 18 2f 2d 3f e0 63 fa bc 80 b7 1a 3f 60 59 76 bc
       0.67649984 -0.030565202 0.6043625 -0.015035957
000140 e6 d1 21 3f 30 33 1d 3c 2f 9f 87 3e 33 60 2c 3f
       0.63210905 0.009594724 0.26488635 0.6733429
000150 38 85 b1 3c f3 e8 8e 3e bd 8d 25 3f 3f 26 12 3f
       0.021669969 0.279121 0.646694 0.5708961
000160 b1 97 52 bd e9 26 2e 3f 75 64 bf 3e 28 bc 0c 3d
       -0.051414195 0.6802812 0.3738133 0.034359127
000170 1a 4e 99 3e 08 2d 06 3d 14 8f 91 3e 8f 68 49 bd
       0.299424 0.03275779 0.28429472 -0.04917198
000180 4d 4d bd 3e 7c 8d 5c 3d f3 1e 96 3e 77 9f 25 3f
       0.36973038 0.053845868 0.29320487 0.6469645
000190 53 a5 5c bd ae e5 0a 3f c8 ca 66 3d 04 48 12 3f
       -0.053868603 0.54256713 0.05634573 0.5714114
0001a0 a0 e9 59 3e 17 d1 09 bd 7f fa c5 3e 3c 70 10 3d
       0.21280527 -0.03364667 0.38667676 0.035263285
0001b0 90 58 14 3f 60 c2 eb bb d5 7a 81 3e 0a d7 ab 3e
       0.57947636 -0.007194802 0.25289026 0.335625
0001c0 51 8b 95 3e b9 40 5e 3e 80 73 7e 3b 2a e5 86 3e
       0.29207852 0.21704377 0.0038826168 0.26346713
0001d0 11 60 79 3e cb 97 96 bd 6c 42 93 bc 3f aa 9a 3e
       0.24353053 -0.07353171 -0.017976008 0.30208012
0001e0 a0 d9 9c 3d ba 2b 12 3f 05 de 4c bd 08 63 76 3d
       0.07658696 0.5709797 -0.05001642 0.060153037
0001f0 62 40 aa 3e e7 13 8b 3e 91 8e 9b 3e 2f c1 96 3e
       0.33252245 0.27163622 0.30382207 0.29444262
000200 0e 26 b5 bd 5c dc 73 3d 40 b8 0e 3f 66 18 76 3e
       -0.08845149 0.059536323 0.55749893 0.24032745
000210 4e 1b 8d bd 3c 29 6c 3d 50 b9 60 3d 73 e3 b0 3e
       -0.068899736 0.05765651 0.054864228 0.3454853
000220 32 17 96 bd 90 3b 18 3d f0 63 4a 3c c9 c0 82 bd
       -0.07328643 0.03716618 0.0123529285 -0.06384427
000230 59 7a 2b 3f 8a 87 86 3d 7d a0 57 3e 28 a4 ea bc
       0.6698356 0.06568821 0.21057315 -0.028642729
000240 b3 50 47 3f 48 40 50 3d 6c f6 a2 bd 7d e9 a8 3e
       0.7785751 0.050842553 -0.079571575 0.32990637
000250 55 5b 9a 3e 87 c6 72 3e dc f2 3d 3d d6 da 9d 3d
       0.30147806 0.23708545 0.046374187 0.07707755
000260 a7 5b a8 3e 04 41 88 3d b8 d9 8b 3c dc 7c ea 3c
       0.32882425 0.06653026 0.01707159 0.02862399
000270 42 9d 19 3f c8 60 77 3d 2a 29 ad 3e 16 b2 4c 3f
       0.6000558 0.060395032 0.33820468 0.7995924
000280 a8 4d 95 3e 7d 1a 09 3f 13 28 20 3f 5c 78 8c bc
       0.2916081 0.5355604 0.6256115 -0.017147236
000290 5d 4a 0e 3f 30 e4 16 3c b8 ba 4b 3d 3f d4 c6 3e
       0.5558222 0.009209678 0.049738616 0.38833806
0002a0 35 d6 62 bd 1b 19 3e 3f 78 b4 30 3f d0 75 ae 3e
       -0.055380065 0.7425706 0.69025373 0.3407426
0002b0 53 c9 86 3e a1 26 35 3f f0 46 18 3d 9b 6c 9d 3e
       0.26325473 0.7076207 0.037177026 0.30746922
0002c0 f3 e0 36 3f ab a1 53 3e 16 96 c6 3e 93 5b 44 3f
       0.71436995 0.2066714 0.3878638 0.7670223
0002d0 f6 50 60 3e 8c 7f 81 3c 6f 03 74 3e ad 23 bc 3e
       0.21905884 0.01580789 0.23829435 0.36745968
0002e0 45 30 33 3f 0a e5 56 3e 27 66 8b 3e 6d 46 13 3f
       0.6999553 0.20985809 0.27226374 0.57529336
0002f0 86 fe 90 bd 74 fe 7f bd 04 66 dc 3c a5 92 9d 3e
       -0.070797965 -0.062498525 0.026904114 0.30775943
000300 ea 2e 2f 3f 00 0f 83 bb 92 0e c8 3e b8 46 ac 3e
       0.6843096 -0.003999591 0.39073616 0.33647704
000310 e6 19 38 3f 3e 20 72 bd c5 03 49 3f 4d e2 06 bd
       0.7191452 -0.05911278 0.78521377 -0.03293066
000320 a1 d3 28 3f 76 6f 94 3d 95 32 b5 3e 00 62 3a 3f
       0.6594792 0.07247822 0.35390154 0.72805786
000330 48 04 f1 bc 80 c0 c5 3e f1 c4 10 3f 54 5f 44 3f
       -0.029420987 0.38623428 0.5655051 0.7670796
000340 14 b9 99 3d e2 0f 47 3f 20 b8 a2 3e 30 15 72 bd
       0.07506004 0.7775861 0.317811 -0.059102237
000350 61 60 8f 3e 90 c5 89 3c 5d 14 b8 3e a5 95 7b bd
       0.2800322 0.016817838 0.35953036 -0.06142201
000360 9e 29 68 3e f7 fb 32 3e d2 1b 99 3e ee bd 17 3f
       0.22672126 0.1747893 0.29904038 0.59274185
000370 64 61 71 3d ae 62 29 3f d4 1c 2d 3d 70 d2 2c 3f
       0.05893077 0.661662 0.04226382 0.675086
000380 ce 24 62 3e 05 de ba bd 3a 86 9e 3e 20 e6 87 bb
       0.22084352 -0.09124378 0.30961782 -0.004147306
000390 7d 88 17 3f 70 76 ac 3d c7 0f bc 3e af d7 f9 3e
       0.5919264 0.08421028 0.36730787 0.48797366
0003a0 e2 46 bf 3e b1 92 69 3e b4 9b a6 bd c0 d2 67 3e
       0.37358767 0.22809865 -0.08135167 0.22638988
0003b0 36 c1 b4 3e 30 ef ca 3b ee 05 8b 3d 25 71 65 3e
       0.35303658 0.006193064 0.067882404 0.22406442
0003c0 24 97 e5 3c fc b8 51 3f 0a 54 06 3d 18 58 cf bc
       0.028026171 0.8192289 0.03279499 -0.025310561
0003d0 54 0d 91 3e 09 0a 88 3e a2 f9 a2 3e 5e 59 50 3e
       0.2833048 0.26570156 0.3183108 0.20346591
0003e0 00 33 da 3b 7c 5f d4 3c 3a c0 43 3f 7b ee a4 3e
       0.0066589117 0.025924437 0.7646519 0.32213196
0003f0 2c 94 8e 3e 70 4c d8 bb 20 97 eb bb ea a0 96 3e
       0.2784742 -0.006600909 -0.0071896464 0.29419643

bias f4 [61]
000000 2c 8e 3e 3f c8 b4 40 3f 0d b8 66 3f 45 d7 3e 3f
       0.7443569 0.7527585 0.9012459 0.74547225
000010 b6 14 79 3f f4 35 49 3f 08 fe 08 3f 11 8d 4c 3f
       0.9729723 0.7859795 0.5351262 0.7990275
000020 40 1c e2 3e 3e bb ff 3e d8 70 6f 3e ca 46 ee 3e
       0.44162178 0.49947542 0.2338289 0.46538383
000030 e0 80 4b 3f 23 50 a5 3f d3 f6 be 3e 6c 2a 80 3f
       0.7949352 1.2915081 0.37297687 1.0012946
000040 18 ff 40 be be 29 49 3f 0e cb ea 3e 3f 1c 52 3f
       -0.1884731 0.7857932 0.45858043 0.8207435
000050 b3 03 5d 3f 0b 7b f8 3e b4 39 76 3f 34 7a f1 3e
       0.8633377 0.48531374 0.961818 0.47163546
000060 30 eb 22 be c2 50 6c 3f 4d e0 c2 3e b5 6f 4d 3f
       -0.1591003 0.92310727 0.38061753 0.80248576
000070 bb 85 56 be 6e 61 7a 3f ac 2c 00 be 34 07 37 3f
       -0.20949452 0.97804916 -0.12517041 0.71495366
000080 31 01 06 bd 1f 16 5d 3f 09 42 57 3f 51 6b ea 3e
       -0.03271598 0.8636188 0.84085137 0.45785
000090 b5 55 8a bd c7 b5 51 3f d9 de 69 3f 49 96 04 3f
       -0.067546286 0.81917995 0.91355664 0.51791817
0000a0 0a 66 43 3f 31 df 3e 3f fb eb 28 3f 0b 90 cd 3e
       0.76327574 0.74559313 0.6598508 0.4014896
0000b0 4d 26 c1 3e d5 a8 31 3f ea 5c 57 3f 16 71 90 3f
       0.37724534 0.6939824 0.8412615 1.1284511
0000c0 ed c2 89 3e 00 71 7e 3f 7b 54 5d 3f 2e 07 15 3f
       0.2690653 0.99391174 0.8645703 0.5821408
0000d0 15 e0 26 3f 9f 14 2f 3f 6b 6c 86 3f 81 e8 e8 3e
       0.6518567 0.6839084 1.0501837 0.45489886
0000e0 3c 67 64 3e 67 70 f3 3e 1d 19 34 3f c2 8d 15 3f
       0.22305006 0.47546694 0.7035082 0.5841943
0000f0 f2 3c 0a 3d
       0.03374953
